…
    random_crop_ratio: 0.1
    resize: -1
    scale: 1
    cropped_height: 480
    cropped_width: 640
    tiling_width: 20
    tiling_height: 15
    label_resolution: 8
    catalog_resolution: 2
    catalog_number: 250
    resize_max: 5
    resize_min: 0.2
    reco_max: 170
    reco_min: 32
    train_max: 200
    train_min: 10
    genlist_file: "./../../data/marks/genlist.txt"
    gen_rate: 1
    blur_max: 10
    noise_max: 0.1
    gamma_max: 0.69314718
    k_max: 0.1
    y0_max: 0.1
    shrink_max: 0.5
    slip_max: 0.2
    gen_scale: 1
    use_mask: false
  }
}
layer {
  name: "label_pixel"
  type: "Slice"
  bottom: "label"
  top: "label_pixel"
  top: "label_bb"
  top: "label_size"
  top: "label_norm"
  slice_param {
    slice_dim: 1
    slice_point: 1
    slice_point: 5
    slice_point: 7
  }
}
layer {
  name: "label_pixel4"
  type: "Concat"
  bottom: "label_pixel"
  bottom: "label_pixel"
  bottom: "label_pixel"
  bottom: "label_pixel"
  top: "label_pixel4"
  concat_param {
    concat_dim: 1
  }
}
layer {
  name: "label_size4"
  type: "Concat"
  bottom: "label_size"
  bottom: "label_size"
  top: "label_size4"
  concat_param {
    concat_dim: 1
  }
}
layer {
  name: "label_norm4"
  type: "Concat"
  bottom: "label_norm"
  bottom: "label_norm"
  bottom: "label_norm"
  bottom: "label_norm"
  top: "label_norm4"
  concat_param {
    concat_dim: 1
  }
}
layer {
  name: "label_bb_sn"
  type: "Eltwise"
  bottom: "label_bb"
  bottom: "label_size4"
  top: "label_bb_sn"
  eltwise_param {
    operation: PROD
  }
}
layer {
  name: "label_bb_sn_nn"
  type: "Eltwise"
  bottom: "label_bb_sn"
  bottom: "label_norm4"
  top: "label_bb_sn_nn"
  eltwise_param {
    operation: PROD
  }
}
layer {
  name: "Convolution1"
  type: "Convolution"
  bottom: "data"
  top: "Convolution1"
  param {
    lr_mult: 1
    decay_mult: 1
  }
  param {
    lr_mult: 2
    decay_mult: 0
  }
  convolution_param {
    num_output: 96
    pad: 0
    kernel_size: 11
    stride: 4
    weight_filler {
      type: "gaussian"
      std: 0.01
    }
    bias_filler {
      type: "constant"
      value: 1
    }
  }
}
layer {
  name: "conv0"
  type: "ReLU"
  bottom: "Convolution1"
  top: "Convolution1"
}
layer {
  name: "norm0"
  type: "LRN"
  bottom: "Convolution1"
  top: "norm0"
  lrn_param {
    local_size: 5
    alpha: 0.0005
    beta: 0.75
    k: 2
  }
}
layer {
  name: "pool0"
  type: "Pooling"
  bottom: "norm0"
  top: "pool0"
  pooling_param {
    pool: MAX
    kernel_size: 3
    stride: 2
  }
}
layer {
  name: "Convolution2"
  type: "Convolution"
  bottom: "pool0"
  top: "Convolution2"
  param {
    lr_mult: 1
    decay_mult: 1
  }
  param {
    lr_mult: 2
    decay_mult: 0
  }
  convolution_param {
    num_output: 256
    pad: 2
    kernel_size: 5
    stride: 1
    weight_filler {
      type: "gaussian"
      std: 0.01
    }
    bias_filler {
      type: "constant"
      value: 1
    }
  }
}
layer {
  name: "conv1"
  type: "ReLU"
  bottom: "Convolution2"
  top: "Convolution2"
}
layer {
  name: "norm1"
  type: "LRN"
  bottom: "Convolution2"
  top: "norm1"
  lrn_param {
    local_size: 5
    alpha: 0.0005
    beta: 0.75
    k: 8
  }
}
layer {
  name: "pool1"
  type: "Pooling"
  bottom: "norm1"
  top: "pool1"
  pooling_param {
    pool: MAX
    kernel_size: 3
    stride: 2
  }
}
layer {
  name: "Convolution3"
  type: "Convolution"
  bottom: "pool1"
  top: "Convolution3"
  param {
    lr_mult: 1
    decay_mult: 1
  }
  param {
    lr_mult: 2
    decay_mult: 0
  }
  convolution_param {
    num_output: 384
    pad: 1
    kernel_size: 3
    stride: 1
    weight_filler {
      type: "gaussian"
      std: 0.01
    }
    bias_filler {
      type: "constant"
      value: 0.1
    }
  }
}
layer {
  name: "conv2"
  type: "ReLU"
  bottom: "Convolution3"
  top: "Convolution3"
}
layer {
  name: "Convolution4"
  type: "Convolution"
  bottom: "Convolution3"
  top: "Convolution4"
  param {
    lr_mult: 1
    decay_mult: 1
  }
  param {
    lr_mult: 2
    decay_mult: 0
  }
  convolution_param {
    num_output: 384
    pad: 1
    kernel_size: 3
    stride: 1
    weight_filler {
      type: "gaussian"
      std: 0.01
    }
    bias_filler {
      type: "constant"
      value: 0.1
    }
  }
}
layer {
  name: "conv3"
  type: "ReLU"
  bottom: "Convolution4"
  top: "Convolution4"
}
layer {
  name: "Convolution5"
  type: "Convolution"
  bottom: "Convolution4"
  top: "Convolution5"
  param {
    lr_mult: 1
    decay_mult: 1
  }
  param {
    lr_mult: 2
    decay_mult: 0
  }
  convolution_param {
    num_output: 384
    pad: 1
    kernel_size: 3
    stride: 1
    weight_filler {
      type: "gaussian"
      std: 0.01
    }
    bias_filler {
      type: "constant"
      value: 0.1
    }
  }
}
layer {
  name: "conv4"
  type: "ReLU"
  bottom: "Convolution5"
  top: "Convolution5"
}
layer {
  name: "pool4"
  type: "Pooling"
  bottom: "Convolution5"
  top: "pool4"
  pooling_param {
    pool: MAX
    kernel_size: 3
    stride: 2
  }
}
layer {
  name: "Convolution6"
  type: "Convolution"
  bottom: "pool4"
  top: "Convolution6"
  param {
    lr_mult: 1
    decay_mult: 1
  }
  param {
    lr_mult: 2
    decay_mult: 0
  }
  convolution_param {
    num_output: 4096
    pad: 3
    kernel_size: 6
    stride: 1
    weight_filler {
      type: "gaussian"
      std: 0.01
    }
    bias_filler {
      type: "constant"
      value: 1
    }
  }
}
layer {
  name: "fc5"
  type: "ReLU"
  bottom: "Convolution6"
  top: "Convolution6"
}
layer {
  name: "drop5"
  type: "Dropout"
  bottom: "Convolution6"
  top: "Convolution6"
  dropout_param {
    dropout_ratio: 0.5
  }
}
layer {
  name: "Convolution7"
  type: "Convolution"
  bottom: "Convolution6"
  top: "Convolution7"
  param {
    lr_mult: 5
    decay_mult: 0.1
  }
  param {
    lr_mult: 2
    decay_mult: 0
  }
  convolution_param {
    num_output: 4096
    pad: 0
    kernel_size: 1
    stride: 1
    weight_filler {
      type: "gaussian"
      std: 0.01
    }
    bias_filler {
      type: "constant"
      value: 1
    }
  }
}
layer {
  name: "fc6"
  type: "ReLU"
  bottom: "Convolution7"
  top: "Convolution7"
}
layer {
  name: "drop6"
  type: "Dropout"
  bottom: "Convolution7"
  top: "Convolution7"
  dropout_param {
    dropout_ratio: 0.5
  }
}
layer {
  name: "Convolution8"
  type: "Convolution"
  bottom: "Convolution6"
  top: "Convolution8"
  param {
    lr_mult: 1
    decay_mult: 1
  }
  param {
    lr_mult: 2
    decay_mult: 0
  }
  convolution_param {
    num_output: 4096
    pad: 0
    kernel_size: 1
    stride: 1
    weight_filler {
      type: "gaussian"
      std: 0.01
    }
    bias_filler {
      type: "constant"
      value: 1
    }
  }
}
layer {
  name: "ReLU1"
  type: "ReLU"
  bottom: "Convolution8"
  top: "Convolution8"
}
layer {
  name: "Dropout1"
  type: "Dropout"
  bottom: "Convolution8"
  top: "Convolution8"
  dropout_param {
    dropout_ratio: 0.5
  }
}
layer {
  name: "Convolution9"
  type: "Convolution"
  bottom: "Convolution8"
  top: "Convolution9"
  param {
    lr_mult: 1
    decay_mult: 1
  }
  param {
    lr_mult: 2
    decay_mult: 0
  }
  convolution_param {
    num_output: 128
    pad: 0
    kernel_size: 1
    stride: 1
    weight_filler {
      type: "gaussian"
      std: 0.01
    }
    bias_filler {
      type: "constant"
      value: 0
    }
  }
}
layer {
  name: "output_pixel"
  type: "Tiling"
  bottom: "Convolution9"
  top: "output_pixel"
  tiling_param {
    tile_dim: 8
  }
}
layer {
  name: "loss_pixel"
  type: "SoftmaxWithLoss"
  bottom: "output_pixel"
  bottom: "label_pixel"
  top: "loss_pixel"
  loss_weight: 1
}
layer {
  name: "acc_pixel_all"
  type: "Accuracy"
  bottom: "output_pixel"
  bottom: "label_pixel"
  top: "acc_pixel_all"
}
layer {
  name: "acc_pixel_top1"
  type: "Accuracy"
  bottom: "output_pixel"
  bottom: "label_pixel"
  top: "acc_pixel_top1"
  accuracy_param {
    ignore_label: 0
  }
}
layer {
  name: "Convolution10"
  type: "Convolution"
  bottom: "Convolution6"
  top: "Convolution10"
  param {
    lr_mult: 1
    decay_mult: 1
  }
  param {
    lr_mult: 2
    decay_mult: 0
  }
  convolution_param {
    num_output: 4096
    pad: 0
    kernel_size: 1
    stride: 1
    weight_filler {
      type: "gaussian"
      std: 0.01
    }
    bias_filler {
      type: "constant"
      value: 1
    }
  }
}
layer {
  name: "ReLU2"
  type: "ReLU"
  bottom: "Convolution10"
  top: "Convolution10"
}
layer {
  name: "Dropout2"
  type: "Dropout"
  bottom: "Convolution10"
  top: "Convolution10"
  dropout_param {
    dropout_ratio: 0.5
  }
}
layer {
  name: "Convolution11"
  type: "Convolution"
  bottom: "Convolution10"
  top: "Convolution11"
  param {
    lr_mult: 1
    decay_mult: 1
  }
  param {
    lr_mult: 2
    decay_mult: 0
  }
  convolution_param {
    num_output: 1004
    pad: 0
    kernel_size: 1
    stride: 1
    weight_filler {
      type: "gaussian"
      std: 0.01
    }
    bias_filler {
      type: "constant"
      value: 0
    }
  }
}
layer {
  name: "output_type"
  type: "Tiling"
  bottom: "Convolution11"
  top: "output_type"
  tiling_param {
    tile_dim: 2
  }
}
layer {
  name: "loss_type"
  type: "SoftmaxWithLoss"
  bottom: "output_type"
  bottom: "label_type"
  top: "loss_type"
  loss_weight: 3
}
layer {
  name: "acc_type_all"
  type: "Accuracy"
  bottom: "output_type"
  bottom: "label_type"
  top: "acc_type_all"
}
layer {
  name: "acc_type_top1"
  type: "Accuracy"
  bottom: "output_type"
  bottom: "label_type"
  top: "acc_type_top1"
  accuracy_param {
    ignore_label: 0
  }
}
layer {
  name: "acc_type_top5"
  type: "Accuracy"
  bottom: "output_type"
  bottom: "label_type"
  top: "acc_type_top5"
  accuracy_param {
    top_k: 5
    ignore_label: 0
  }
}
layer {
  name: "Convolution12"
  type: "Convolution"
  bottom: "Convolution7"
  top: "Convolution12"
  param {
    lr_mult: 20
    decay_mult: 0.1
  }
  param {
    lr_mult: 20
    decay_mult: 0
  }
  convolution_param {
    num_output: 256
    pad: 0
    kernel_size: 1
    stride: 1
    weight_filler {
      type: "gaussian"
      std: 0.01
    }
    bias_filler {
      type: "constant"
      value: 0
    }
  }
}
layer {
  name: "output_bb"
  type: "Tiling"
  bottom: "Convolution12"
  top: "output_bb"
  tiling_param {
    tile_dim: 8
  }
}
layer {
  name: "Eltwise1"
  type: "Eltwise"
  bottom: "output_bb"
  bottom: "label_pixel4"
  top: "Eltwise1"
  eltwise_param {
    operation: PROD
  }
}
layer {
  name: "Eltwise2"
  type: "Eltwise"
  bottom: "Eltwise1"
  bottom: "label_size4"
  top: "Eltwise2"
  eltwise_param {
    operation: PROD
  }
}
layer {
  name: "output_bb_norm"
  type: "Eltwise"
  bottom: "Eltwise2"
  bottom: "label_norm4"
  top: "output_bb_norm"
  eltwise_param {
    operation: PROD
  }
}
layer {
  name: "loss_bb"
  type: "L1Loss"
  bottom: "output_bb_norm"
  bottom: "label_bb_sn_nn"
  top: "loss_bb"
  loss_weight: 3
}
I0518 20:02:56.657632  3179 layer_factory.hpp:76] Creating layer data
I0518 20:02:56.658229  3179 net.cpp:110] Creating Layer data
I0518 20:02:56.658260  3179 net.cpp:432] data -> data
I0518 20:02:56.658308  3179 net.cpp:432] data -> label
I0518 20:02:56.658335  3179 net.cpp:432] data -> label_type
I0518 20:02:56.658368  3179 data_transformer.cpp:23] Loading mean file from: ./../../data/lmdb/train_mean.binaryproto
I0518 20:02:56.747045  3188 db_lmdb.cpp:22] Opened lmdb ./../../data/lmdb/train/
I0518 20:03:00.690434  3179 drive_data_layer.cpp:46] output data size: 20,3,480,640
I0518 20:03:00.690485  3179 drive_data_layer.cpp:50] using genlist ./../../data/marks/genlist.txt
I0518 20:03:00.916252  3179 drive_data_layer.cpp:61] total 3 artificial pics
I0518 20:03:01.740869  3179 net.cpp:155] Setting up data
I0518 20:03:01.740918  3179 net.cpp:163] Top shape: 20 3 480 640 (18432000)
I0518 20:03:01.740931  3179 net.cpp:163] Top shape: 20 8 120 160 (3072000)
I0518 20:03:01.740942  3179 net.cpp:163] Top shape: 20 1 30 40 (24000)
I0518 20:03:01.740958  3179 layer_factory.hpp:76] Creating layer label_type_data_2_split
I0518 20:03:01.740978  3179 net.cpp:110] Creating Layer label_type_data_2_split
I0518 20:03:01.740990  3179 net.cpp:476] label_type_data_2_split <- label_type
I0518 20:03:01.741015  3179 net.cpp:432] label_type_data_2_split -> label_type_data_2_split_0
I0518 20:03:01.741034  3179 net.cpp:432] label_type_data_2_split -> label_type_data_2_split_1
I0518 20:03:01.741044  3179 net.cpp:432] label_type_data_2_split -> label_type_data_2_split_2
I0518 20:03:01.741052  3179 net.cpp:432] label_type_data_2_split -> label_type_data_2_split_3
I0518 20:03:01.741076  3179 net.cpp:155] Setting up label_type_data_2_split
I0518 20:03:01.741089  3179 net.cpp:163] Top shape: 20 1 30 40 (24000)
I0518 20:03:01.741096  3179 net.cpp:163] Top shape: 20 1 30 40 (24000)
I0518 20:03:01.741102  3179 net.cpp:163] Top shape: 20 1 30 40 (24000)
I0518 20:03:01.741108  3179 net.cpp:163] Top shape: 20 1 30 40 (24000)
I0518 20:03:01.741113  3179 layer_factory.hpp:76] Creating layer label_pixel
I0518 20:03:01.741122  3179 net.cpp:110] Creating Layer label_pixel
I0518 20:03:01.741127  3179 net.cpp:476] label_pixel <- label
I0518 20:03:01.741135  3179 net.cpp:432] label_pixel -> label_pixel
I0518 20:03:01.741145  3179 net.cpp:432] label_pixel -> label_bb
I0518 20:03:01.741155  3179 net.cpp:432] label_pixel -> label_size
I0518 20:03:01.741163  3179 net.cpp:432] label_pixel -> label_norm
I0518 20:03:01.741175  3179 net.cpp:155] Setting up label_pixel
I0518 20:03:01.741209  3179 net.cpp:163] Top shape: 20 1 120 160 (384000)
I0518 20:03:01.741217  3179 net.cpp:163] Top shape: 20 4 120 160 (1536000)
I0518 20:03:01.741222  3179 net.cpp:163] Top shape: 20 2 120 160 (768000)
I0518 20:03:01.741228  3179 net.cpp:163] Top shape: 20 1 120 160 (384000)
I0518 20:03:01.741233  3179 layer_factory.hpp:76] Creating layer label_pixel_label_pixel_0_split
I0518 20:03:01.741240  3179 net.cpp:110] Creating Layer label_pixel_label_pixel_0_split
I0518 20:03:01.741245  3179 net.cpp:476] label_pixel_label_pixel_0_split <- label_pixel
I0518 20:03:01.741252  3179 net.cpp:432] label_pixel_label_pixel_0_split -> label_pixel_label_pixel_0_split_0
I0518 20:03:01.741261  3179 net.cpp:432] label_pixel_label_pixel_0_split -> label_pixel_label_pixel_0_split_1
I0518 20:03:01.741271  3179 net.cpp:432] label_pixel_label_pixel_0_split -> label_pixel_label_pixel_0_split_2
I0518 20:03:01.741278  3179 net.cpp:432] label_pixel_label_pixel_0_split -> label_pixel_label_pixel_0_split_3
I0518 20:03:01.741286  3179 net.cpp:432] label_pixel_label_pixel_0_split -> label_pixel_label_pixel_0_split_4
I0518 20:03:01.741294  3179 net.cpp:432] label_pixel_label_pixel_0_split -> label_pixel_label_pixel_0_split_5
I0518 20:03:01.741303  3179 net.cpp:432] label_pixel_label_pixel_0_split -> label_pixel_label_pixel_0_split_6
I0518 20:03:01.741312  3179 net.cpp:155] Setting up label_pixel_label_pixel_0_split
I0518 20:03:01.741318  3179 net.cpp:163] Top shape: 20 1 120 160 (384000)
I0518 20:03:01.741324  3179 net.cpp:163] Top shape: 20 1 120 160 (384000)
I0518 20:03:01.741329  3179 net.cpp:163] Top shape: 20 1 120 160 (384000)
I0518 20:03:01.741335  3179 net.cpp:163] Top shape: 20 1 120 160 (384000)
I0518 20:03:01.741340  3179 net.cpp:163] Top shape: 20 1 120 160 (384000)
I0518 20:03:01.741346  3179 net.cpp:163] Top shape: 20 1 120 160 (384000)
I0518 20:03:01.741351  3179 net.cpp:163] Top shape: 20 1 120 160 (384000)
I0518 20:03:01.741385  3179 layer_factory.hpp:76] Creating layer label_size_label_pixel_2_split
I0518 20:03:01.741394  3179 net.cpp:110] Creating Layer label_size_label_pixel_2_split
I0518 20:03:01.741399  3179 net.cpp:476] label_size_label_pixel_2_split <- label_size
I0518 20:03:01.741405  3179 net.cpp:432] label_size_label_pixel_2_split -> label_size_label_pixel_2_split_0
I0518 20:03:01.741415  3179 net.cpp:432] label_size_label_pixel_2_split -> label_size_label_pixel_2_split_1
I0518 20:03:01.741422  3179 net.cpp:155] Setting up label_size_label_pixel_2_split
I0518 20:03:01.741428  3179 net.cpp:163] Top shape: 20 2 120 160 (768000)
I0518 20:03:01.741435  3179 net.cpp:163] Top shape: 20 2 120 160 (768000)
I0518 20:03:01.741439  3179 layer_factory.hpp:76] Creating layer label_norm_label_pixel_3_split
I0518 20:03:01.741444  3179 net.cpp:110] Creating Layer label_norm_label_pixel_3_split
I0518 20:03:01.741449  3179 net.cpp:476] label_norm_label_pixel_3_split <- label_norm
I0518 20:03:01.741456  3179 net.cpp:432] label_norm_label_pixel_3_split -> label_norm_label_pixel_3_split_0
I0518 20:03:01.741463  3179 net.cpp:432] label_norm_label_pixel_3_split -> label_norm_label_pixel_3_split_1
I0518 20:03:01.741472  3179 net.cpp:432] label_norm_label_pixel_3_split -> label_norm_label_pixel_3_split_2
I0518 20:03:01.741479  3179 net.cpp:432] label_norm_label_pixel_3_split -> label_norm_label_pixel_3_split_3
I0518 20:03:01.741487  3179 net.cpp:155] Setting up label_norm_label_pixel_3_split
I0518 20:03:01.741493  3179 net.cpp:163] Top shape: 20 1 120 160 (384000)
I0518 20:03:01.741498  3179 net.cpp:163] Top shape: 20 1 120 160 (384000)
I0518 20:03:01.741503  3179 net.cpp:163] Top shape: 20 1 120 160 (384000)
I0518 20:03:01.741509  3179 net.cpp:163] Top shape: 20 1 120 160 (384000)
I0518 20:03:01.741513  3179 layer_factory.hpp:76] Creating layer label_pixel4
I0518 20:03:01.741521  3179 net.cpp:110] Creating Layer label_pixel4
I0518 20:03:01.741525  3179 net.cpp:476] label_pixel4 <- label_pixel_label_pixel_0_split_0
I0518 20:03:01.741531  3179 net.cpp:476] label_pixel4 <- label_pixel_label_pixel_0_split_1
I0518 20:03:01.741536  3179 net.cpp:476] label_pixel4 <- label_pixel_label_pixel_0_split_2
I0518 20:03:01.741542  3179 net.cpp:476] label_pixel4 <- label_pixel_label_pixel_0_split_3
I0518 20:03:01.741549  3179 net.cpp:432] label_pixel4 -> label_pixel4
I0518 20:03:01.741559  3179 net.cpp:155] Setting up label_pixel4
I0518 20:03:01.741565  3179 net.cpp:163] Top shape: 20 4 120 160 (1536000)
I0518 20:03:01.741570  3179 layer_factory.hpp:76] Creating layer label_size4
I0518 20:03:01.741576  3179 net.cpp:110] Creating Layer label_size4
I0518 20:03:01.741581  3179 net.cpp:476] label_size4 <- label_size_label_pixel_2_split_0
I0518 20:03:01.741586  3179 net.cpp:476] label_size4 <- label_size_label_pixel_2_split_1
I0518 20:03:01.741593  3179 net.cpp:432] label_size4 -> label_size4
I0518 20:03:01.741601  3179 net.cpp:155] Setting up label_size4
I0518 20:03:01.741607  3179 net.cpp:163] Top shape: 20 4 120 160 (1536000)
I0518 20:03:01.741612  3179 layer_factory.hpp:76] Creating layer label_size4_label_size4_0_split
I0518 20:03:01.741618  3179 net.cpp:110] Creating Layer label_size4_label_size4_0_split
I0518 20:03:01.741623  3179 net.cpp:476] label_size4_label_size4_0_split <- label_size4
I0518 20:03:01.741631  3179 net.cpp:432] label_size4_label_size4_0_split -> label_size4_label_size4_0_split_0
I0518 20:03:01.741637  3179 net.cpp:432] label_size4_label_size4_0_split -> label_size4_label_size4_0_split_1
I0518 20:03:01.741646  3179 net.cpp:155] Setting up label_size4_label_size4_0_split
I0518 20:03:01.741652  3179 net.cpp:163] Top shape: 20 4 120 160 (1536000)
I0518 20:03:01.741657  3179 net.cpp:163] Top shape: 20 4 120 160 (1536000)
I0518 20:03:01.741662  3179 layer_factory.hpp:76] Creating layer label_norm4
I0518 20:03:01.741667  3179 net.cpp:110] Creating Layer label_norm4
I0518 20:03:01.741672  3179 net.cpp:476] label_norm4 <- label_norm_label_pixel_3_split_0
I0518 20:03:01.741677  3179 net.cpp:476] label_norm4 <- label_norm_label_pixel_3_split_1
I0518 20:03:01.741691  3179 net.cpp:476] label_norm4 <- label_norm_label_pixel_3_split_2
I0518 20:03:01.741698  3179 net.cpp:476] label_norm4 <- label_norm_label_pixel_3_split_3
I0518 20:03:01.741704  3179 net.cpp:432] label_norm4 -> label_norm4
I0518 20:03:01.741713  3179 net.cpp:155] Setting up label_norm4
I0518 20:03:01.741719  3179 net.cpp:163] Top shape: 20 4 120 160 (1536000)
I0518 20:03:01.741724  3179 layer_factory.hpp:76] Creating layer label_norm4_label_norm4_0_split
I0518 20:03:01.741729  3179 net.cpp:110] Creating Layer label_norm4_label_norm4_0_split
I0518 20:03:01.741734  3179 net.cpp:476] label_norm4_label_norm4_0_split <- label_norm4
I0518 20:03:01.741740  3179 net.cpp:432] label_norm4_label_norm4_0_split -> label_norm4_label_norm4_0_split_0
I0518 20:03:01.741747  3179 net.cpp:432] label_norm4_label_norm4_0_split -> label_norm4_label_norm4_0_split_1
I0518 20:03:01.741755  3179 net.cpp:155] Setting up label_norm4_label_norm4_0_split
I0518 20:03:01.741761  3179 net.cpp:163] Top shape: 20 4 120 160 (1536000)
I0518 20:03:01.741766  3179 net.cpp:163] Top shape: 20 4 120 160 (1536000)
I0518 20:03:01.741771  3179 layer_factory.hpp:76] Creating layer label_bb_sn
I0518 20:03:01.741778  3179 net.cpp:110] Creating Layer label_bb_sn
I0518 20:03:01.741782  3179 net.cpp:476] label_bb_sn <- label_bb
I0518 20:03:01.741788  3179 net.cpp:476] label_bb_sn <- label_size4_label_size4_0_split_0
I0518 20:03:01.741794  3179 net.cpp:432] label_bb_sn -> label_bb_sn
I0518 20:03:01.741804  3179 net.cpp:155] Setting up label_bb_sn
I0518 20:03:01.741811  3179 net.cpp:163] Top shape: 20 4 120 160 (1536000)
I0518 20:03:01.741816  3179 layer_factory.hpp:76] Creating layer label_bb_sn_nn
I0518 20:03:01.741821  3179 net.cpp:110] Creating Layer label_bb_sn_nn
I0518 20:03:01.741825  3179 net.cpp:476] label_bb_sn_nn <- label_bb_sn
I0518 20:03:01.741830  3179 net.cpp:476] label_bb_sn_nn <- label_norm4_label_norm4_0_split_0
I0518 20:03:01.741837  3179 net.cpp:432] label_bb_sn_nn -> label_bb_sn_nn
I0518 20:03:01.741845  3179 net.cpp:155] Setting up label_bb_sn_nn
I0518 20:03:01.741852  3179 net.cpp:163] Top shape: 20 4 120 160 (1536000)
I0518 20:03:01.741856  3179 layer_factory.hpp:76] Creating layer Convolution1
I0518 20:03:01.741865  3179 net.cpp:110] Creating Layer Convolution1
I0518 20:03:01.741870  3179 net.cpp:476] Convolution1 <- data
I0518 20:03:01.741878  3179 net.cpp:432] Convolution1 -> Convolution1
I0518 20:03:01.949319  3179 net.cpp:155] Setting up Convolution1
I0518 20:03:01.949416  3179 net.cpp:163] Top shape: 20 96 118 158 (35796480)
I0518 20:03:01.949476  3179 layer_factory.hpp:76] Creating layer conv0
I0518 20:03:01.949501  3179 net.cpp:110] Creating Layer conv0
I0518 20:03:01.949515  3179 net.cpp:476] conv0 <- Convolution1
I0518 20:03:01.949530  3179 net.cpp:419] conv0 -> Convolution1 (in-place)
I0518 20:03:01.949549  3179 net.cpp:155] Setting up conv0
I0518 20:03:01.949560  3179 net.cpp:163] Top shape: 20 96 118 158 (35796480)
I0518 20:03:01.949568  3179 layer_factory.hpp:76] Creating layer norm0
I0518 20:03:01.949582  3179 net.cpp:110] Creating Layer norm0
I0518 20:03:01.949590  3179 net.cpp:476] norm0 <- Convolution1
I0518 20:03:01.949601  3179 net.cpp:432] norm0 -> norm0
I0518 20:03:01.949621  3179 net.cpp:155] Setting up norm0
I0518 20:03:01.949632  3179 net.cpp:163] Top shape: 20 96 118 158 (35796480)
I0518 20:03:01.949640  3179 layer_factory.hpp:76] Creating layer pool0
I0518 20:03:01.949653  3179 net.cpp:110] Creating Layer pool0
I0518 20:03:01.949662  3179 net.cpp:476] pool0 <- norm0
I0518 20:03:01.949672  3179 net.cpp:432] pool0 -> pool0
I0518 20:03:01.949707  3179 net.cpp:155] Setting up pool0
I0518 20:03:01.949723  3179 net.cpp:163] Top shape: 20 96 59 79 (8949120)
I0518 20:03:01.949733  3179 layer_factory.hpp:76] Creating layer Convolution2
I0518 20:03:01.949748  3179 net.cpp:110] Creating Layer Convolution2
I0518 20:03:01.949759  3179 net.cpp:476] Convolution2 <- pool0
I0518 20:03:01.949772  3179 net.cpp:432] Convolution2 -> Convolution2
I0518 20:03:02.012152  3179 net.cpp:155] Setting up Convolution2
I0518 20:03:02.012231  3179 net.cpp:163] Top shape: 20 256 59 79 (23864320)
I0518 20:03:02.012372  3179 layer_factory.hpp:76] Creating layer conv1
I0518 20:03:02.012400  3179 net.cpp:110] Creating Layer conv1
I0518 20:03:02.012408  3179 net.cpp:476] conv1 <- Convolution2
I0518 20:03:02.012419  3179 net.cpp:419] conv1 -> Convolution2 (in-place)
I0518 20:03:02.012434  3179 net.cpp:155] Setting up conv1
I0518 20:03:02.012440  3179 net.cpp:163] Top shape: 20 256 59 79 (23864320)
I0518 20:03:02.012445  3179 layer_factory.hpp:76] Creating layer norm1
I0518 20:03:02.012454  3179 net.cpp:110] Creating Layer norm1
I0518 20:03:02.012459  3179 net.cpp:476] norm1 <- Convolution2
I0518 20:03:02.012465  3179 net.cpp:432] norm1 -> norm1
I0518 20:03:02.012477  3179 net.cpp:155] Setting up norm1
I0518 20:03:02.012483  3179 net.cpp:163] Top shape: 20 256 59 79 (23864320)
I0518 20:03:02.012488  3179 layer_factory.hpp:76] Creating layer pool1
I0518 20:03:02.012495  3179 net.cpp:110] Creating Layer pool1
I0518 20:03:02.012501  3179 net.cpp:476] pool1 <- norm1
I0518 20:03:02.012506  3179 net.cpp:432] pool1 -> pool1
I0518 20:03:02.012517  3179 net.cpp:155] Setting up pool1
I0518 20:03:02.012523  3179 net.cpp:163] Top shape: 20 256 29 39 (5790720)
I0518 20:03:02.012528  3179 layer_factory.hpp:76] Creating layer Convolution3
I0518 20:03:02.012537  3179 net.cpp:110] Creating Layer Convolution3
I0518 20:03:02.012542  3179 net.cpp:476] Convolution3 <- pool1
I0518 20:03:02.012549  3179 net.cpp:432] Convolution3 -> Convolution3
I0518 20:03:02.034741  3179 net.cpp:155] Setting up Convolution3
I0518 20:03:02.034775  3179 net.cpp:163] Top shape: 20 384 29 39 (8686080)
I0518 20:03:02.034795  3179 layer_factory.hpp:76] Creating layer conv2
I0518 20:03:02.034806  3179 net.cpp:110] Creating Layer conv2
I0518 20:03:02.034813  3179 net.cpp:476] conv2 <- Convolution3
I0518 20:03:02.034821  3179 net.cpp:419] conv2 -> Convolution3 (in-place)
I0518 20:03:02.034833  3179 net.cpp:155] Setting up conv2
I0518 20:03:02.034839  3179 net.cpp:163] Top shape: 20 384 29 39 (8686080)
I0518 20:03:02.034843  3179 layer_factory.hpp:76] Creating layer Convolution4
I0518 20:03:02.034853  3179 net.cpp:110] Creating Layer Convolution4
I0518 20:03:02.034857  3179 net.cpp:476] Convolution4 <- Convolution3
I0518 20:03:02.034865  3179 net.cpp:432] Convolution4 -> Convolution4
I0518 20:03:02.062018  3179 net.cpp:155] Setting up Convolution4
I0518 20:03:02.062058  3179 net.cpp:163] Top shape: 20 384 29 39 (8686080)
I0518 20:03:02.062079  3179 layer_factory.hpp:76] Creating layer conv3
I0518 20:03:02.062095  3179 net.cpp:110] Creating Layer conv3
I0518 20:03:02.062105  3179 net.cpp:476] conv3 <- Convolution4
I0518 20:03:02.062119  3179 net.cpp:419] conv3 -> Convolution4 (in-place)
I0518 20:03:02.062135  3179 net.cpp:155] Setting up conv3
I0518 20:03:02.062147  3179 net.cpp:163] Top shape: 20 384 29 39 (8686080)
I0518 20:03:02.062156  3179 layer_factory.hpp:76] Creating layer Convolution5
I0518 20:03:02.062172  3179 net.cpp:110] Creating Layer Convolution5
I0518 20:03:02.062180  3179 net.cpp:476] Convolution5 <- Convolution4
I0518 20:03:02.062192  3179 net.cpp:432] Convolution5 -> Convolution5
I0518 20:03:02.083150  3179 net.cpp:155] Setting up Convolution5
I0518 20:03:02.083186  3179 net.cpp:163] Top shape: 20 384 29 39 (8686080)
I0518 20:03:02.083210  3179 layer_factory.hpp:76] Creating layer conv4
I0518 20:03:02.083227  3179 net.cpp:110] Creating Layer conv4
I0518 20:03:02.083237  3179 net.cpp:476] conv4 <- Convolution5
I0518 20:03:02.083250  3179 net.cpp:419] conv4 -> Convolution5 (in-place)
I0518 20:03:02.083267  3179 net.cpp:155] Setting up conv4
I0518 20:03:02.083279  3179 net.cpp:163] Top shape: 20 384 29 39 (8686080)
I0518 20:03:02.083286  3179 layer_factory.hpp:76] Creating layer pool4
I0518 20:03:02.083293  3179 net.cpp:110] Creating Layer pool4
I0518 20:03:02.083298  3179 net.cpp:476] pool4 <- Convolution5
I0518 20:03:02.083305  3179 net.cpp:432] pool4 -> pool4
I0518 20:03:02.083317  3179 net.cpp:155] Setting up pool4
I0518 20:03:02.083324  3179 net.cpp:163] Top shape: 20 384 14 19 (2042880)
I0518 20:03:02.083353  3179 layer_factory.hpp:76] Creating layer Convolution6
I0518 20:03:02.083362  3179 net.cpp:110] Creating Layer Convolution6
I0518 20:03:02.083367  3179 net.cpp:476] Convolution6 <- pool4
I0518 20:03:02.083374  3179 net.cpp:432] Convolution6 -> Convolution6
I0518 20:03:02.942646  3179 net.cpp:155] Setting up Convolution6
I0518 20:03:02.942683  3179 net.cpp:163] Top shape: 20 4096 15 20 (24576000)
I0518 20:03:02.942698  3179 layer_factory.hpp:76] Creating layer fc5
I0518 20:03:02.942715  3179 net.cpp:110] Creating Layer fc5
I0518 20:03:02.942724  3179 net.cpp:476] fc5 <- Convolution6
I0518 20:03:02.942737  3179 net.cpp:419] fc5 -> Convolution6 (in-place)
I0518 20:03:02.942754  3179 net.cpp:155] Setting up fc5
I0518 20:03:02.942765  3179 net.cpp:163] Top shape: 20 4096 15 20 (24576000)
I0518 20:03:02.942775  3179 layer_factory.hpp:76] Creating layer drop5
I0518 20:03:02.942785  3179 net.cpp:110] Creating Layer drop5
I0518 20:03:02.942790  3179 net.cpp:476] drop5 <- Convolution6
I0518 20:03:02.942796  3179 net.cpp:419] drop5 -> Convolution6 (in-place)
I0518 20:03:02.942811  3179 net.cpp:155] Setting up drop5
I0518 20:03:02.942817  3179 net.cpp:163] Top shape: 20 4096 15 20 (24576000)
I0518 20:03:02.942821  3179 layer_factory.hpp:76] Creating layer Convolution6_drop5_0_split
I0518 20:03:02.942828  3179 net.cpp:110] Creating Layer Convolution6_drop5_0_split
I0518 20:03:02.942833  3179 net.cpp:476] Convolution6_drop5_0_split <- Convolution6
I0518 20:03:02.942839  3179 net.cpp:432] Convolution6_drop5_0_split -> Convolution6_drop5_0_split_0
I0518 20:03:02.942848  3179 net.cpp:432] Convolution6_drop5_0_split -> Convolution6_drop5_0_split_1
I0518 20:03:02.942857  3179 net.cpp:432] Convolution6_drop5_0_split -> Convolution6_drop5_0_split_2
I0518 20:03:02.942867  3179 net.cpp:155] Setting up Convolution6_drop5_0_split
I0518 20:03:02.942873  3179 net.cpp:163] Top shape: 20 4096 15 20 (24576000)
I0518 20:03:02.942878  3179 net.cpp:163] Top shape: 20 4096 15 20 (24576000)
I0518 20:03:02.942883  3179 net.cpp:163] Top shape: 20 4096 15 20 (24576000)
I0518 20:03:02.942888  3179 layer_factory.hpp:76] Creating layer Convolution7
I0518 20:03:02.942898  3179 net.cpp:110] Creating Layer Convolution7
I0518 20:03:02.942903  3179 net.cpp:476] Convolution7 <- Convolution6_drop5_0_split_0
I0518 20:03:02.942910  3179 net.cpp:432] Convolution7 -> Convolution7
I0518 20:03:03.201299  3179 net.cpp:155] Setting up Convolution7
I0518 20:03:03.201337  3179 net.cpp:163] Top shape: 20 4096 15 20 (24576000)
I0518 20:03:03.201354  3179 layer_factory.hpp:76] Creating layer fc6
I0518 20:03:03.201365  3179 net.cpp:110] Creating Layer fc6
I0518 20:03:03.201372  3179 net.cpp:476] fc6 <- Convolution7
I0518 20:03:03.201381  3179 net.cpp:419] fc6 -> Convolution7 (in-place)
I0518 20:03:03.201395  3179 net.cpp:155] Setting up fc6
I0518 20:03:03.201400  3179 net.cpp:163] Top shape: 20 4096 15 20 (24576000)
I0518 20:03:03.201406  3179 layer_factory.hpp:76] Creating layer drop6
I0518 20:03:03.201413  3179 net.cpp:110] Creating Layer drop6
I0518 20:03:03.201417  3179 net.cpp:476] drop6 <- Convolution7
I0518 20:03:03.201424  3179 net.cpp:419] drop6 -> Convolution7 (in-place)
I0518 20:03:03.201433  3179 net.cpp:155] Setting up drop6
I0518 20:03:03.201438  3179 net.cpp:163] Top shape: 20 4096 15 20 (24576000)
I0518 20:03:03.201443  3179 layer_factory.hpp:76] Creating layer Convolution8
I0518 20:03:03.201452  3179 net.cpp:110] Creating Layer Convolution8
I0518 20:03:03.201457  3179 net.cpp:476] Convolution8 <- Convolution6_drop5_0_split_1
I0518 20:03:03.201465  3179 net.cpp:432] Convolution8 -> Convolution8
I0518 20:03:03.485741  3179 net.cpp:155] Setting up Convolution8
I0518 20:03:03.485780  3179 net.cpp:163] Top shape: 20 4096 15 20 (24576000)
I0518 20:03:03.485859  3179 layer_factory.hpp:76] Creating layer ReLU1
I0518 20:03:03.485874  3179 net.cpp:110] Creating Layer ReLU1
I0518 20:03:03.485882  3179 net.cpp:476] ReLU1 <- Convolution8
I0518 20:03:03.485890  3179 net.cpp:419] ReLU1 -> Convolution8 (in-place)
I0518 20:03:03.485901  3179 net.cpp:155] Setting up ReLU1
I0518 20:03:03.485930  3179 net.cpp:163] Top shape: 20 4096 15 20 (24576000)
I0518 20:03:03.485935  3179 layer_factory.hpp:76] Creating layer Dropout1
I0518 20:03:03.485944  3179 net.cpp:110] Creating Layer Dropout1
I0518 20:03:03.485949  3179 net.cpp:476] Dropout1 <- Convolution8
I0518 20:03:03.485955  3179 net.cpp:419] Dropout1 -> Convolution8 (in-place)
I0518 20:03:03.485965  3179 net.cpp:155] Setting up Dropout1
I0518 20:03:03.485970  3179 net.cpp:163] Top shape: 20 4096 15 20 (24576000)
I0518 20:03:03.485975  3179 layer_factory.hpp:76] Creating layer Convolution9
I0518 20:03:03.485983  3179 net.cpp:110] Creating Layer Convolution9
I0518 20:03:03.485988  3179 net.cpp:476] Convolution9 <- Convolution8
I0518 20:03:03.485996  3179 net.cpp:432] Convolution9 -> Convolution9
I0518 20:03:03.495553  3179 net.cpp:155] Setting up Convolution9
I0518 20:03:03.495628  3179 net.cpp:163] Top shape: 20 128 15 20 (768000)
I0518 20:03:03.495661  3179 layer_factory.hpp:76] Creating layer output_pixel
I0518 20:03:03.495679  3179 net.cpp:110] Creating Layer output_pixel
I0518 20:03:03.495692  3179 net.cpp:476] output_pixel <- Convolution9
I0518 20:03:03.495707  3179 net.cpp:432] output_pixel -> output_pixel
I0518 20:03:03.495735  3179 net.cpp:155] Setting up output_pixel
I0518 20:03:03.495748  3179 net.cpp:163] Top shape: 20 2 120 160 (768000)
I0518 20:03:03.495757  3179 layer_factory.hpp:76] Creating layer output_pixel_output_pixel_0_split
I0518 20:03:03.495769  3179 net.cpp:110] Creating Layer output_pixel_output_pixel_0_split
I0518 20:03:03.495775  3179 net.cpp:476] output_pixel_output_pixel_0_split <- output_pixel
I0518 20:03:03.495786  3179 net.cpp:432] output_pixel_output_pixel_0_split -> output_pixel_output_pixel_0_split_0
I0518 20:03:03.495800  3179 net.cpp:432] output_pixel_output_pixel_0_split -> output_pixel_output_pixel_0_split_1
I0518 20:03:03.495815  3179 net.cpp:432] output_pixel_output_pixel_0_split -> output_pixel_output_pixel_0_split_2
I0518 20:03:03.495831  3179 net.cpp:155] Setting up output_pixel_output_pixel_0_split
I0518 20:03:03.495842  3179 net.cpp:163] Top shape: 20 2 120 160 (768000)
I0518 20:03:03.495852  3179 net.cpp:163] Top shape: 20 2 120 160 (768000)
I0518 20:03:03.495862  3179 net.cpp:163] Top shape: 20 2 120 160 (768000)
I0518 20:03:03.495870  3179 layer_factory.hpp:76] Creating layer loss_pixel
I0518 20:03:03.495884  3179 net.cpp:110] Creating Layer loss_pixel
I0518 20:03:03.495894  3179 net.cpp:476] loss_pixel <- output_pixel_output_pixel_0_split_0
I0518 20:03:03.495908  3179 net.cpp:476] loss_pixel <- label_pixel_label_pixel_0_split_4
I0518 20:03:03.495925  3179 net.cpp:432] loss_pixel -> loss_pixel
…
I0518 20:03:03.503298  3179 net.cpp:432] acc_pixel_top1 -> acc_pixel_top1
I0518 20:03:03.503306  3179 net.cpp:155] Setting up acc_pixel_top1
I0518 20:03:03.503312  3179 net.cpp:163] Top shape: (1)
I0518 20:03:03.503316  3179 layer_factory.hpp:76] Creating layer Convolution10
I0518 20:03:03.503355  3179 net.cpp:110] Creating Layer Convolution10
I0518 20:03:03.503360  3179 net.cpp:476] Convolution10 <- Convolution6_drop5_0_split_2
I0518 20:03:03.503368  3179 net.cpp:432] Convolution10 -> Convolution10
I0518 20:03:03.767518  3179 net.cpp:155] Setting up Convolution10
I0518 20:03:03.767554  3179 net.cpp:163] Top shape: 20 4096 15 20 (24576000)
I0518 20:03:03.767568  3179 layer_factory.hpp:76] Creating layer ReLU2
I0518 20:03:03.767580  3179 net.cpp:110] Creating Layer ReLU2
I0518 20:03:03.767586  3179 net.cpp:476] ReLU2 <- Convolution10
I0518 20:03:03.767596  3179 net.cpp:419] ReLU2 -> Convolution10 (in-place)
I0518 20:03:03.767606  3179 net.cpp:155] Setting up ReLU2
I0518 20:03:03.767612  3179 net.cpp:163] Top shape: 20 4096 15 20 (24576000)
I0518 20:03:03.767617  3179 layer_factory.hpp:76] Creating layer Dropout2
I0518 20:03:03.767624  3179 net.cpp:110] Creating Layer Dropout2
I0518 20:03:03.767629  3179 net.cpp:476] Dropout2 <- Convolution10
I0518 20:03:03.767635  3179 net.cpp:419] Dropout2 -> Convolution10 (in-place)
I0518 20:03:03.767643  3179 net.cpp:155] Setting up Dropout2
I0518 20:03:03.767649  3179 net.cpp:163] Top shape: 20 4096 15 20 (24576000)
I0518 20:03:03.767654  3179 layer_factory.hpp:76] Creating layer Convolution11
I0518 20:03:03.767663  3179 net.cpp:110] Creating Layer Convolution11
I0518 20:03:03.767668  3179 net.cpp:476] Convolution11 <- Convolution10
I0518 20:03:03.767674  3179 net.cpp:432] Convolution11 -> Convolution11
I0518 20:03:03.839622  3179 net.cpp:155] Setting up Convolution11
I0518 20:03:03.839665  3179 net.cpp:163] Top shape: 20 1004 15 20 (6024000)
I0518 20:03:03.839689  3179 layer_factory.hpp:76] Creating layer output_type
I0518 20:03:03.839706  3179 net.cpp:110] Creating Layer output_type
I0518 20:03:03.839716  3179 net.cpp:476] output_type <- Convolution11
I0518 20:03:03.839730  3179 net.cpp:432] output_type -> output_type
I0518 20:03:03.839751  3179 net.cpp:155] Setting up output_type
I0518 20:03:03.839761  3179 net.cpp:163] Top shape: 20 251 30 40 (6024000)
I0518 20:03:03.839769  3179 layer_factory.hpp:76] Creating layer output_type_output_type_0_split
I0518 20:03:03.839781  3179 net.cpp:110] Creating Layer output_type_output_type_0_split
I0518 20:03:03.839789  3179 net.cpp:476] output_type_output_type_0_split <- output_type
I0518 20:03:03.839800  3179 net.cpp:432] output_type_output_type_0_split -> output_type_output_type_0_split_0
I0518 20:03:03.839817  3179 net.cpp:432] output_type_output_type_0_split -> output_type_output_type_0_split_1
I0518 20:03:03.839830  3179 net.cpp:432] output_type_output_type_0_split -> output_type_output_type_0_split_2
I0518 20:03:03.839843  3179 net.cpp:432] output_type_output_type_0_split -> output_type_output_type_0_split_3
I0518 20:03:03.839856  3179 net.cpp:155] Setting up output_type_output_type_0_split
I0518 20:03:03.839866  3179 net.cpp:163] Top shape: 20 251 30 40 (6024000)
I0518 20:03:03.839876  3179 net.cpp:163] Top shape: 20 251 30 40 (6024000)
I0518 20:03:03.839886  3179 net.cpp:163] Top shape: 20 251 30 40 (6024000)
I0518 20:03:03.839897  3179 net.cpp:163] Top shape: 20 251 30 40 (6024000)
I0518 20:03:03.839905  3179 layer_factory.hpp:76] Creating layer loss_type
I0518 20:03:03.839912  3179 net.cpp:110] Creating Layer loss_type
I0518 20:03:03.839917  3179 net.cpp:476] loss_type <- output_type_output_type_0_split_0
I0518 20:03:03.839926  3179 net.cpp:476] loss_type <- label_type_data_2_split_0
I0518 20:03:03.839938  3179 net.cpp:432] loss_type -> loss_type
I0518 20:03:03.839959  3179 layer_factory.hpp:76] Creating layer loss_type
…
I0518 20:03:03.862254  3179 net.cpp:476] acc_type_top5 <- label_type_data_2_split_3
I0518 20:03:03.862265  3179 net.cpp:432] acc_type_top5 -> acc_type_top5
I0518 20:03:03.862277  3179 net.cpp:155] Setting up acc_type_top5
I0518 20:03:03.862283  3179 net.cpp:163] Top shape: (1)
I0518 20:03:03.862288  3179 layer_factory.hpp:76] Creating layer Convolution12
I0518 20:03:03.862298  3179 net.cpp:110] Creating Layer Convolution12
I0518 20:03:03.862303  3179 net.cpp:476] Convolution12 <- Convolution7
I0518 20:03:03.862310  3179 net.cpp:432] Convolution12 -> Convolution12
I0518 20:03:03.885812  3179 net.cpp:155] Setting up Convolution12
I0518 20:03:03.885885  3179 net.cpp:163] Top shape: 20 256 15 20 (1536000)
I0518 20:03:03.885912  3179 layer_factory.hpp:76] Creating layer output_bb
I0518 20:03:03.885931  3179 net.cpp:110] Creating Layer output_bb
I0518 20:03:03.885941  3179 net.cpp:476] output_bb <- Convolution12
I0518 20:03:03.885956  3179 net.cpp:432] output_bb -> output_bb
I0518 20:03:03.885977  3179 net.cpp:155] Setting up output_bb
I0518 20:03:03.885984  3179 net.cpp:163] Top shape: 20 4 120 160 (1536000)
I0518 20:03:03.885989  3179 layer_factory.hpp:76] Creating layer Eltwise1
I0518 20:03:03.885998  3179 net.cpp:110] Creating Layer Eltwise1
I0518 20:03:03.886003  3179 net.cpp:476] Eltwise1 <- output_bb
I0518 20:03:03.886008  3179 net.cpp:476] Eltwise1 <- label_pixel4
I0518 20:03:03.886016  3179 net.cpp:432] Eltwise1 -> Eltwise1
I0518 20:03:03.886025  3179 net.cpp:155] Setting up Eltwise1
I0518 20:03:03.886031  3179 net.cpp:163] Top shape: 20 4 120 160 (1536000)
I0518 20:03:03.886036  3179 layer_factory.hpp:76] Creating layer Eltwise2
I0518 20:03:03.886042  3179 net.cpp:110] Creating Layer Eltwise2
I0518 20:03:03.886046  3179 net.cpp:476] Eltwise2 <- Eltwise1
I0518 20:03:03.886052  3179 net.cpp:476] Eltwise2 <- label_size4_label_size4_0_split_1
I0518 20:03:03.886059  3179 net.cpp:432] Eltwise2 -> Eltwise2
I0518 20:03:03.886067  3179 net.cpp:155] Setting up Eltwise2
I0518 20:03:03.886073  3179 net.cpp:163] Top shape: 20 4 120 160 (1536000)
I0518 20:03:03.886077  3179 layer_factory.hpp:76] Creating layer output_bb_norm
I0518 20:03:03.886083  3179 net.cpp:110] Creating Layer output_bb_norm
I0518 20:03:03.886087  3179 net.cpp:476] output_bb_norm <- Eltwise2
I0518 20:03:03.886093  3179 net.cpp:476] output_bb_norm <- label_norm4_label_norm4_0_split_1
I0518 20:03:03.886099  3179 net.cpp:432] output_bb_norm -> output_bb_norm
I0518 20:03:03.886107  3179 net.cpp:155] Setting up output_bb_norm
I0518 20:03:03.886113  3179 net.cpp:163] Top shape: 20 4 120 160 (1536000)
I0518 20:03:03.886117  3179 layer_factory.hpp:76] Creating layer loss_bb
I0518 20:03:03.886124  3179 net.cpp:110] Creating Layer loss_bb
I0518 20:03:03.886129  3179 net.cpp:476] loss_bb <- output_bb_norm
I0518 20:03:03.886134  3179 net.cpp:476] loss_bb <- label_bb_sn_nn
I0518 20:03:03.886142  3179 net.cpp:432] loss_bb -> loss_bb
I0518 20:03:03.886173  3179 net.cpp:155] Setting up loss_bb
…
    random_crop_ratio: 0.1
    resize: -1
    scale: 1
    cropped_height: 480
    cropped_width: 640
    tiling_width: 20
    tiling_height: 15
    label_resolution: 8
    catalog_resolution: 2
    catalog_number: 250
    resize_max: 5
    resize_min: 0.2
    reco_max: 170
    reco_min: 32
    train_max: 200
    train_min: 10
    genlist_file: "./../../data/marks/genlist.txt"
    gen_rate: 1
    blur_max: 10
    noise_max: 0.1
    gamma_max: 0.69314718
    k_max: 0.1
    y0_max: 0.1
    shrink_max: 0.5
    slip_max: 0.2
    gen_scale: 1
    use_mask: false
  }
}
layer {
  name: "label_pixel"
  type: "Slice"
  bottom: "label"
  top: "label_pixel"
  top: "label_bb"
  top: "label_size"
  top: "label_norm"
  slice_param {
    slice_dim: 1
    slice_point: 1
    slice_point: 5
    slice_point: 7
  }
}
layer {
  name: "label_pixel4"
  type: "Concat"
  bottom: "label_pixel"
  bottom: "label_pixel"
  bottom: "label_pixel"
  bottom: "label_pixel"
  top: "label_pixel4"
  concat_param {
    concat_dim: 1
  }
}
layer {
  name: "label_size4"
  type: "Concat"
  bottom: "label_size"
  bottom: "label_size"
  top: "label_size4"
  concat_param {
    concat_dim: 1
  }
}
layer {
  name: "label_norm4"
  type: "Concat"
  bottom: "label_norm"
  bottom: "label_norm"
  bottom: "label_norm"
  bottom: "label_norm"
  top: "label_norm4"
  concat_param {
    concat_dim: 1
  }
}
layer {
  name: "label_bb_sn"
  type: "Eltwise"
  bottom: "label_bb"
  bottom: "label_size4"
  top: "label_bb_sn"
  eltwise_param {
    operation: PROD
  }
}
layer {
  name: "label_bb_sn_nn"
  type: "Eltwise"
  bottom: "label_bb_sn"
  bottom: "label_norm4"
  top: "label_bb_sn_nn"
  eltwise_param {
    operation: PROD
  }
}
layer {
  name: "Convolution1"
  type: "Convolution"
  bottom: "data"
  top: "Convolution1"
  param {
    lr_mult: 1
    decay_mult: 1
  }
  param {
    lr_mult: 2
    decay_mult: 0
  }
  convolution_param {
    num_output: 96
    pad: 0
    kernel_size: 11
    stride: 4
    weight_filler {
      type: "gaussian"
      std: 0.01
    }
    bias_filler {
      type: "constant"
      value: 1
    }
  }
}
layer {
  name: "conv0"
  type: "ReLU"
  bottom: "Convolution1"
  top: "Convolution1"
}
layer {
  name: "norm0"
  type: "LRN"
  bottom: "Convolution1"
  top: "norm0"
  lrn_param {
    local_size: 5
    alpha: 0.0005
    beta: 0.75
    k: 2
  }
}
layer {
  name: "pool0"
  type: "Pooling"
  bottom: "norm0"
  top: "pool0"
  pooling_param {
    pool: MAX
    kernel_size: 3
    stride: 2
  }
}
layer {
  name: "Convolution2"
  type: "Convolution"
  bottom: "pool0"
  top: "Convolution2"
  param {
    lr_mult: 1
    decay_mult: 1
  }
  param {
    lr_mult: 2
    decay_mult: 0
  }
  convolution_param {
    num_output: 256
    pad: 2
    kernel_size: 5
    stride: 1
    weight_filler {
      type: "gaussian"
      std: 0.01
    }
    bias_filler {
      type: "constant"
      value: 1
    }
  }
}
layer {
  name: "conv1"
  type: "ReLU"
  bottom: "Convolution2"
  top: "Convolution2"
}
layer {
  name: "norm1"
  type: "LRN"
  bottom: "Convolution2"
  top: "norm1"
  lrn_param {
    local_size: 5
    alpha: 0.0005
    beta: 0.75
    k: 8
  }
}
layer {
  name: "pool1"
  type: "Pooling"
  bottom: "norm1"
  top: "pool1"
  pooling_param {
    pool: MAX
    kernel_size: 3
    stride: 2
  }
}
layer {
  name: "Convolution3"
  type: "Convolution"
  bottom: "pool1"
  top: "Convolution3"
  param {
    lr_mult: 1
    decay_mult: 1
  }
  param {
    lr_mult: 2
    decay_mult: 0
  }
  convolution_param {
    num_output: 384
    pad: 1
    kernel_size: 3
    stride: 1
    weight_filler {
      type: "gaussian"
      std: 0.01
    }
    bias_filler {
      type: "constant"
      value: 0.1
    }
  }
}
layer {
  name: "conv2"
  type: "ReLU"
  bottom: "Convolution3"
  top: "Convolution3"
}
layer {
  name: "Convolution4"
  type: "Convolution"
  bottom: "Convolution3"
  top: "Convolution4"
  param {
    lr_mult: 1
    decay_mult: 1
  }
  param {
    lr_mult: 2
    decay_mult: 0
  }
  convolution_param {
    num_output: 384
    pad: 1
    kernel_size: 3
    stride: 1
    weight_filler {
      type: "gaussian"
      std: 0.01
    }
    bias_filler {
      type: "constant"
      value: 0.1
    }
  }
}
layer {
  name: "conv3"
  type: "ReLU"
  bottom: "Convolution4"
  top: "Convolution4"
}
layer {
  name: "Convolution5"
  type: "Convolution"
  bottom: "Convolution4"
  top: "Convolution5"
  param {
    lr_mult: 1
    decay_mult: 1
  }
  param {
    lr_mult: 2
    decay_mult: 0
  }
  convolution_param {
    num_output: 384
    pad: 1
    kernel_size: 3
    stride: 1
    weight_filler {
      type: "gaussian"
      std: 0.01
    }
    bias_filler {
      type: "constant"
      value: 0.1
    }
  }
}
layer {
  name: "conv4"
  type: "ReLU"
  bottom: "Convolution5"
  top: "Convolution5"
}
layer {
  name: "pool4"
  type: "Pooling"
  bottom: "Convolution5"
  top: "pool4"
  pooling_param {
    pool: MAX
    kernel_size: 3
    stride: 2
  }
}
layer {
  name: "Convolution6"
  type: "Convolution"
  bottom: "pool4"
  top: "Convolution6"
  param {
    lr_mult: 1
    decay_mult: 1
  }
  param {
    lr_mult: 2
    decay_mult: 0
  }
  convolution_param {
    num_output: 4096
    pad: 3
    kernel_size: 6
    stride: 1
    weight_filler {
      type: "gaussian"
      std: 0.01
    }
    bias_filler {
      type: "constant"
      value: 1
    }
  }
}
layer {
  name: "fc5"
  type: "ReLU"
  bottom: "Convolution6"
  top: "Convolution6"
}
layer {
  name: "drop5"
  type: "Dropout"
  bottom: "Convolution6"
  top: "Convolution6"
  dropout_param {
    dropout_ratio: 0.5
  }
}
layer {
  name: "Convolution7"
  type: "Convolution"
  bottom: "Convolution6"
  top: "Convolution7"
  param {
    lr_mult: 5
    decay_mult: 0.1
  }
  param {
    lr_mult: 2
    decay_mult: 0
  }
  convolution_param {
    num_output: 4096
    pad: 0
    kernel_size: 1
    stride: 1
    weight_filler {
      type: "gaussian"
      std: 0.01
    }
    bias_filler {
      type: "constant"
      value: 1
    }
  }
}
layer {
  name: "fc6"
  type: "ReLU"
  bottom: "Convolution7"
  top: "Convolution7"
}
layer {
  name: "drop6"
  type: "Dropout"
  bottom: "Convolution7"
  top: "Convolution7"
  dropout_param {
    dropout_ratio: 0.5
  }
}
layer {
  name: "Convolution8"
  type: "Convolution"
  bottom: "Convolution6"
  top: "Convolution8"
  param {
    lr_mult: 1
    decay_mult: 1
  }
  param {
    lr_mult: 2
    decay_mult: 0
  }
  convolution_param {
    num_output: 4096
    pad: 0
    kernel_size: 1
    stride: 1
    weight_filler {
      type: "gaussian"
      std: 0.01
    }
    bias_filler {
      type: "constant"
      value: 1
    }
  }
}
layer {
  name: "ReLU1"
  type: "ReLU"
  bottom: "Convolution8"
  top: "Convolution8"
}
layer {
  name: "Dropout1"
  type: "Dropout"
  bottom: "Convolution8"
  top: "Convolution8"
  dropout_param {
    dropout_ratio: 0.5
  }
}
layer {
  name: "Convolution9"
  type: "Convolution"
  bottom: "Convolution8"
  top: "Convolution9"
  param {
    lr_mult: 1
    decay_mult: 1
  }
  param {
    lr_mult: 2
    decay_mult: 0
  }
  convolution_param {
    num_output: 128
    pad: 0
    kernel_size: 1
    stride: 1
    weight_filler {
      type: "gaussian"
      std: 0.01
    }
    bias_filler {
      type: "constant"
      value: 0
    }
  }
}
layer {
  name: "output_pixel"
  type: "Tiling"
  bottom: "Convolution9"
  top: "output_pixel"
  tiling_param {
    tile_dim: 8
  }
}
layer {
  name: "loss_pixel"
  type: "SoftmaxWithLoss"
  bottom: "output_pixel"
  bottom: "label_pixel"
  top: "loss_pixel"
  loss_weight: 1
}
layer {
  name: "acc_pixel_all"
  type: "Accuracy"
  bottom: "output_pixel"
  bottom: "label_pixel"
  top: "acc_pixel_all"
}
layer {
  name: "acc_pixel_top1"
  type: "Accuracy"
  bottom: "output_pixel"
  bottom: "label_pixel"
  top: "acc_pixel_top1"
  accuracy_param {
    ignore_label: 0
  }
}
layer {
  name: "Convolution10"
  type: "Convolution"
  bottom: "Convolution6"
  top: "Convolution10"
  param {
    lr_mult: 1
    decay_mult: 1
  }
  param {
    lr_mult: 2
    decay_mult: 0
  }
  convolution_param {
    num_output: 4096
    pad: 0
    kernel_size: 1
    stride: 1
    weight_filler {
      type: "gaussian"
      std: 0.01
    }
    bias_filler {
      type: "constant"
      value: 1
    }
  }
}
layer {
  name: "ReLU2"
  type: "ReLU"
  bottom: "Convolution10"
  top: "Convolution10"
}
layer {
  name: "Dropout2"
  type: "Dropout"
  bottom: "Convolution10"
  top: "Convolution10"
  dropout_param {
    dropout_ratio: 0.5
  }
}
layer {
  name: "Convolution11"
  type: "Convolution"
  bottom: "Convolution10"
  top: "Convolution11"
  param {
    lr_mult: 1
    decay_mult: 1
  }
  param {
    lr_mult: 2
    decay_mult: 0
  }
  convolution_param {
    num_output: 1004
    pad: 0
    kernel_size: 1
    stride: 1
    weight_filler {
      type: "gaussian"
      std: 0.01
    }
    bias_filler {
      type: "constant"
      value: 0
    }
  }
}
layer {
  name: "output_type"
  type: "Tiling"
  bottom: "Convolution11"
  top: "output_type"
  tiling_param {
    tile_dim: 2
  }
}
layer {
  name: "loss_type"
  type: "SoftmaxWithLoss"
  bottom: "output_type"
  bottom: "label_type"
  top: "loss_type"
  loss_weight: 3
}
layer {
  name: "acc_type_all"
  type: "Accuracy"
  bottom: "output_type"
  bottom: "label_type"
  top: "acc_type_all"
}
layer {
  name: "acc_type_top1"
  type: "Accuracy"
  bottom: "output_type"
  bottom: "label_type"
  top: "acc_type_top1"
  accuracy_param {
    ignore_label: 0
  }
}
layer {
  name: "acc_type_top5"
  type: "Accuracy"
  bottom: "output_type"
  bottom: "label_type"
  top: "acc_type_top5"
  accuracy_param {
    top_k: 5
    ignore_label: 0
  }
}
layer {
  name: "Convolution12"
  type: "Convolution"
  bottom: "Convolution7"
  top: "Convolution12"
  param {
    lr_mult: 20
    decay_mult: 0.1
  }
  param {
    lr_mult: 20
    decay_mult: 0
  }
  convolution_param {
    num_output: 256
    pad: 0
    kernel_size: 1
    stride: 1
    weight_filler {
      type: "gaussian"
      std: 0.01
    }
    bias_filler {
      type: "constant"
      value: 0
    }
  }
}
layer {
  name: "output_bb"
  type: "Tiling"
  bottom: "Convolution12"
  top: "output_bb"
  tiling_param {
    tile_dim: 8
  }
}
layer {
  name: "Eltwise1"
  type: "Eltwise"
  bottom: "output_bb"
  bottom: "label_pixel4"
  top: "Eltwise1"
  eltwise_param {
    operation: PROD
  }
}
layer {
  name: "Eltwise2"
  type: "Eltwise"
  bottom: "Eltwise1"
  bottom: "label_size4"
  top: "Eltwise2"
  eltwise_param {
    operation: PROD
  }
}
layer {
  name: "output_bb_norm"
  type: "Eltwise"
  bottom: "Eltwise2"
  bottom: "label_norm4"
  top: "output_bb_norm"
  eltwise_param {
    operation: PROD
  }
}
layer {
  name: "loss_bb"
  type: "L1Loss"
  bottom: "output_bb_norm"
  bottom: "label_bb_sn_nn"
  top: "loss_bb"
  loss_weight: 3
}
I0518 20:03:03.908532  3179 layer_factory.hpp:76] Creating layer data
I0518 20:03:03.908607  3179 net.cpp:110] Creating Layer data
I0518 20:03:03.908624  3179 net.cpp:432] data -> data
I0518 20:03:03.908644  3179 net.cpp:432] data -> label
I0518 20:03:03.908660  3179 net.cpp:432] data -> label_type
I0518 20:03:03.908676  3179 data_transformer.cpp:23] Loading mean file from: ./../../data/lmdb/train_mean.binaryproto
I0518 20:03:03.972357  3190 db_lmdb.cpp:22] Opened lmdb ./../../data/lmdb/test/
I0518 20:03:04.313439  3179 drive_data_layer.cpp:46] output data size: 1,3,480,640
I0518 20:03:04.313486  3179 drive_data_layer.cpp:50] using genlist ./../../data/marks/genlist.txt
I0518 20:03:05.347177  3179 drive_data_layer.cpp:61] total 3 artificial pics
I0518 20:03:05.462996  3179 net.cpp:155] Setting up data
I0518 20:03:05.463042  3179 net.cpp:163] Top shape: 1 3 480 640 (921600)
I0518 20:03:05.463055  3179 net.cpp:163] Top shape: 1 8 120 160 (153600)
I0518 20:03:05.463065  3179 net.cpp:163] Top shape: 1 1 30 40 (1200)
I0518 20:03:05.463076  3179 layer_factory.hpp:76] Creating layer label_type_data_2_split
I0518 20:03:05.463096  3179 net.cpp:110] Creating Layer label_type_data_2_split
I0518 20:03:05.463106  3179 net.cpp:476] label_type_data_2_split <- label_type
I0518 20:03:05.463121  3179 net.cpp:432] label_type_data_2_split -> label_type_data_2_split_0
I0518 20:03:05.463140  3179 net.cpp:432] label_type_data_2_split -> label_type_data_2_split_1
I0518 20:03:05.463156  3179 net.cpp:432] label_type_data_2_split -> label_type_data_2_split_2
I0518 20:03:05.463171  3179 net.cpp:432] label_type_data_2_split -> label_type_data_2_split_3
I0518 20:03:05.463186  3179 net.cpp:155] Setting up label_type_data_2_split
I0518 20:03:05.463197  3179 net.cpp:163] Top shape: 1 1 30 40 (1200)
I0518 20:03:05.463210  3179 net.cpp:163] Top shape: 1 1 30 40 (1200)
I0518 20:03:05.463224  3179 net.cpp:163] Top shape: 1 1 30 40 (1200)
I0518 20:03:05.463239  3179 net.cpp:163] Top shape: 1 1 30 40 (1200)
I0518 20:03:05.463253  3179 layer_factory.hpp:76] Creating layer label_pixel
I0518 20:03:05.463268  3179 net.cpp:110] Creating Layer label_pixel
I0518 20:03:05.463277  3179 net.cpp:476] label_pixel <- label
I0518 20:03:05.463290  3179 net.cpp:432] label_pixel -> label_pixel
I0518 20:03:05.463304  3179 net.cpp:432] label_pixel -> label_bb
I0518 20:03:05.463327  3179 net.cpp:432] label_pixel -> label_size
I0518 20:03:05.463349  3179 net.cpp:432] label_pixel -> label_norm
I0518 20:03:05.463371  3179 net.cpp:155] Setting up label_pixel
I0518 20:03:05.463389  3179 net.cpp:163] Top shape: 1 1 120 160 (19200)
I0518 20:03:05.463413  3179 net.cpp:163] Top shape: 1 4 120 160 (76800)
I0518 20:03:05.463426  3179 net.cpp:163] Top shape: 1 2 120 160 (38400)
I0518 20:03:05.463435  3179 net.cpp:163] Top shape: 1 1 120 160 (19200)
I0518 20:03:05.463443  3179 layer_factory.hpp:76] Creating layer label_pixel_label_pixel_0_split
I0518 20:03:05.463454  3179 net.cpp:110] Creating Layer label_pixel_label_pixel_0_split
I0518 20:03:05.463460  3179 net.cpp:476] label_pixel_label_pixel_0_split <- label_pixel
I0518 20:03:05.463497  3179 net.cpp:432] label_pixel_label_pixel_0_split -> label_pixel_label_pixel_0_split_0
I0518 20:03:05.463511  3179 net.cpp:432] label_pixel_label_pixel_0_split -> label_pixel_label_pixel_0_split_1
I0518 20:03:05.463526  3179 net.cpp:432] label_pixel_label_pixel_0_split -> label_pixel_label_pixel_0_split_2
I0518 20:03:05.463538  3179 net.cpp:432] label_pixel_label_pixel_0_split -> label_pixel_label_pixel_0_split_3
I0518 20:03:05.463551  3179 net.cpp:432] label_pixel_label_pixel_0_split -> label_pixel_label_pixel_0_split_4
I0518 20:03:05.463562  3179 net.cpp:432] label_pixel_label_pixel_0_split -> label_pixel_label_pixel_0_split_5
I0518 20:03:05.463575  3179 net.cpp:432] label_pixel_label_pixel_0_split -> label_pixel_label_pixel_0_split_6
I0518 20:03:05.463589  3179 net.cpp:155] Setting up label_pixel_label_pixel_0_split
I0518 20:03:05.463598  3179 net.cpp:163] Top shape: 1 1 120 160 (19200)
I0518 20:03:05.463608  3179 net.cpp:163] Top shape: 1 1 120 160 (19200)
I0518 20:03:05.463615  3179 net.cpp:163] Top shape: 1 1 120 160 (19200)
I0518 20:03:05.463624  3179 net.cpp:163] Top shape: 1 1 120 160 (19200)
I0518 20:03:05.463632  3179 net.cpp:163] Top shape: 1 1 120 160 (19200)
I0518 20:03:05.463641  3179 net.cpp:163] Top shape: 1 1 120 160 (19200)
I0518 20:03:05.463649  3179 net.cpp:163] Top shape: 1 1 120 160 (19200)
I0518 20:03:05.463656  3179 layer_factory.hpp:76] Creating layer label_size_label_pixel_2_split
I0518 20:03:05.463668  3179 net.cpp:110] Creating Layer label_size_label_pixel_2_split
I0518 20:03:05.463676  3179 net.cpp:476] label_size_label_pixel_2_split <- label_size
I0518 20:03:05.463686  3179 net.cpp:432] label_size_label_pixel_2_split -> label_size_label_pixel_2_split_0
I0518 20:03:05.463697  3179 net.cpp:432] label_size_label_pixel_2_split -> label_size_label_pixel_2_split_1
I0518 20:03:05.463711  3179 net.cpp:155] Setting up label_size_label_pixel_2_split
I0518 20:03:05.463719  3179 net.cpp:163] Top shape: 1 2 120 160 (38400)
I0518 20:03:05.463728  3179 net.cpp:163] Top shape: 1 2 120 160 (38400)
I0518 20:03:05.463735  3179 layer_factory.hpp:76] Creating layer label_norm_label_pixel_3_split
I0518 20:03:05.463744  3179 net.cpp:110] Creating Layer label_norm_label_pixel_3_split
I0518 20:03:05.463752  3179 net.cpp:476] label_norm_label_pixel_3_split <- label_norm
I0518 20:03:05.463762  3179 net.cpp:432] label_norm_label_pixel_3_split -> label_norm_label_pixel_3_split_0
I0518 20:03:05.463774  3179 net.cpp:432] label_norm_label_pixel_3_split -> label_norm_label_pixel_3_split_1
I0518 20:03:05.463786  3179 net.cpp:432] label_norm_label_pixel_3_split -> label_norm_label_pixel_3_split_2
I0518 20:03:05.463798  3179 net.cpp:432] label_norm_label_pixel_3_split -> label_norm_label_pixel_3_split_3
I0518 20:03:05.463809  3179 net.cpp:155] Setting up label_norm_label_pixel_3_split
I0518 20:03:05.463817  3179 net.cpp:163] Top shape: 1 1 120 160 (19200)
I0518 20:03:05.463825  3179 net.cpp:163] Top shape: 1 1 120 160 (19200)
I0518 20:03:05.463834  3179 net.cpp:163] Top shape: 1 1 120 160 (19200)
I0518 20:03:05.463842  3179 net.cpp:163] Top shape: 1 1 120 160 (19200)
I0518 20:03:05.463850  3179 layer_factory.hpp:76] Creating layer label_pixel4
I0518 20:03:05.463860  3179 net.cpp:110] Creating Layer label_pixel4
I0518 20:03:05.463867  3179 net.cpp:476] label_pixel4 <- label_pixel_label_pixel_0_split_0
I0518 20:03:05.463876  3179 net.cpp:476] label_pixel4 <- label_pixel_label_pixel_0_split_1
I0518 20:03:05.463883  3179 net.cpp:476] label_pixel4 <- label_pixel_label_pixel_0_split_2
I0518 20:03:05.463891  3179 net.cpp:476] label_pixel4 <- label_pixel_label_pixel_0_split_3
I0518 20:03:05.463902  3179 net.cpp:432] label_pixel4 -> label_pixel4
I0518 20:03:05.463917  3179 net.cpp:155] Setting up label_pixel4
I0518 20:03:05.463925  3179 net.cpp:163] Top shape: 1 4 120 160 (76800)
I0518 20:03:05.463932  3179 layer_factory.hpp:76] Creating layer label_size4
I0518 20:03:05.463942  3179 net.cpp:110] Creating Layer label_size4
I0518 20:03:05.463948  3179 net.cpp:476] label_size4 <- label_size_label_pixel_2_split_0
I0518 20:03:05.463968  3179 net.cpp:476] label_size4 <- label_size_label_pixel_2_split_1
I0518 20:03:05.463979  3179 net.cpp:432] label_size4 -> label_size4
I0518 20:03:05.463992  3179 net.cpp:155] Setting up label_size4
I0518 20:03:05.464000  3179 net.cpp:163] Top shape: 1 4 120 160 (76800)
I0518 20:03:05.464007  3179 layer_factory.hpp:76] Creating layer label_size4_label_size4_0_split
I0518 20:03:05.464017  3179 net.cpp:110] Creating Layer label_size4_label_size4_0_split
I0518 20:03:05.464025  3179 net.cpp:476] label_size4_label_size4_0_split <- label_size4
I0518 20:03:05.464035  3179 net.cpp:432] label_size4_label_size4_0_split -> label_size4_label_size4_0_split_0
I0518 20:03:05.464047  3179 net.cpp:432] label_size4_label_size4_0_split -> label_size4_label_size4_0_split_1
I0518 20:03:05.464059  3179 net.cpp:155] Setting up label_size4_label_size4_0_split
I0518 20:03:05.464068  3179 net.cpp:163] Top shape: 1 4 120 160 (76800)
I0518 20:03:05.464076  3179 net.cpp:163] Top shape: 1 4 120 160 (76800)
I0518 20:03:05.464083  3179 layer_factory.hpp:76] Creating layer label_norm4
I0518 20:03:05.464093  3179 net.cpp:110] Creating Layer label_norm4
I0518 20:03:05.464100  3179 net.cpp:476] label_norm4 <- label_norm_label_pixel_3_split_0
I0518 20:03:05.464107  3179 net.cpp:476] label_norm4 <- label_norm_label_pixel_3_split_1
I0518 20:03:05.464115  3179 net.cpp:476] label_norm4 <- label_norm_label_pixel_3_split_2
I0518 20:03:05.464123  3179 net.cpp:476] label_norm4 <- label_norm_label_pixel_3_split_3
I0518 20:03:05.464133  3179 net.cpp:432] label_norm4 -> label_norm4
I0518 20:03:05.464144  3179 net.cpp:155] Setting up label_norm4
I0518 20:03:05.464153  3179 net.cpp:163] Top shape: 1 4 120 160 (76800)
I0518 20:03:05.464159  3179 layer_factory.hpp:76] Creating layer label_norm4_label_norm4_0_split
I0518 20:03:05.464169  3179 net.cpp:110] Creating Layer label_norm4_label_norm4_0_split
I0518 20:03:05.464176  3179 net.cpp:476] label_norm4_label_norm4_0_split <- label_norm4
I0518 20:03:05.464185  3179 net.cpp:432] label_norm4_label_norm4_0_split -> label_norm4_label_norm4_0_split_0
I0518 20:03:05.464198  3179 net.cpp:432] label_norm4_label_norm4_0_split -> label_norm4_label_norm4_0_split_1
I0518 20:03:05.464210  3179 net.cpp:155] Setting up label_norm4_label_norm4_0_split
I0518 20:03:05.464220  3179 net.cpp:163] Top shape: 1 4 120 160 (76800)
I0518 20:03:05.464227  3179 net.cpp:163] Top shape: 1 4 120 160 (76800)
I0518 20:03:05.464234  3179 layer_factory.hpp:76] Creating layer label_bb_sn
I0518 20:03:05.464244  3179 net.cpp:110] Creating Layer label_bb_sn
I0518 20:03:05.464251  3179 net.cpp:476] label_bb_sn <- label_bb
I0518 20:03:05.464259  3179 net.cpp:476] label_bb_sn <- label_size4_label_size4_0_split_0
I0518 20:03:05.464269  3179 net.cpp:432] label_bb_sn -> label_bb_sn
I0518 20:03:05.464282  3179 net.cpp:155] Setting up label_bb_sn
I0518 20:03:05.464290  3179 net.cpp:163] Top shape: 1 4 120 160 (76800)
I0518 20:03:05.464298  3179 layer_factory.hpp:76] Creating layer label_bb_sn_nn
I0518 20:03:05.464306  3179 net.cpp:110] Creating Layer label_bb_sn_nn
I0518 20:03:05.464313  3179 net.cpp:476] label_bb_sn_nn <- label_bb_sn
I0518 20:03:05.464321  3179 net.cpp:476] label_bb_sn_nn <- label_norm4_label_norm4_0_split_0
I0518 20:03:05.464334  3179 net.cpp:432] label_bb_sn_nn -> label_bb_sn_nn
I0518 20:03:05.464346  3179 net.cpp:155] Setting up label_bb_sn_nn
I0518 20:03:05.464356  3179 net.cpp:163] Top shape: 1 4 120 160 (76800)
I0518 20:03:05.464363  3179 layer_factory.hpp:76] Creating layer Convolution1
I0518 20:03:05.464375  3179 net.cpp:110] Creating Layer Convolution1
I0518 20:03:05.464382  3179 net.cpp:476] Convolution1 <- data
I0518 20:03:05.464395  3179 net.cpp:432] Convolution1 -> Convolution1
I0518 20:03:05.482314  3179 net.cpp:155] Setting up Convolution1
I0518 20:03:05.482367  3179 net.cpp:163] Top shape: 1 96 118 158 (1789824)
I0518 20:03:05.482398  3179 layer_factory.hpp:76] Creating layer conv0
I0518 20:03:05.482415  3179 net.cpp:110] Creating Layer conv0
I0518 20:03:05.482425  3179 net.cpp:476] conv0 <- Convolution1
I0518 20:03:05.482475  3179 net.cpp:419] conv0 -> Convolution1 (in-place)
I0518 20:03:05.482491  3179 net.cpp:155] Setting up conv0
I0518 20:03:05.482502  3179 net.cpp:163] Top shape: 1 96 118 158 (1789824)
I0518 20:03:05.482511  3179 layer_factory.hpp:76] Creating layer norm0
I0518 20:03:05.482527  3179 net.cpp:110] Creating Layer norm0
I0518 20:03:05.482533  3179 net.cpp:476] norm0 <- Convolution1
I0518 20:03:05.482545  3179 net.cpp:432] norm0 -> norm0
I0518 20:03:05.482560  3179 net.cpp:155] Setting up norm0
I0518 20:03:05.482571  3179 net.cpp:163] Top shape: 1 96 118 158 (1789824)
I0518 20:03:05.482594  3179 layer_factory.hpp:76] Creating layer pool0
I0518 20:03:05.482610  3179 net.cpp:110] Creating Layer pool0
I0518 20:03:05.482620  3179 net.cpp:476] pool0 <- norm0
I0518 20:03:05.482630  3179 net.cpp:432] pool0 -> pool0
I0518 20:03:05.482662  3179 net.cpp:155] Setting up pool0
I0518 20:03:05.482672  3179 net.cpp:163] Top shape: 1 96 59 79 (447456)
I0518 20:03:05.482681  3179 layer_factory.hpp:76] Creating layer Convolution2
I0518 20:03:05.482697  3179 net.cpp:110] Creating Layer Convolution2
I0518 20:03:05.482710  3179 net.cpp:476] Convolution2 <- pool0
I0518 20:03:05.482722  3179 net.cpp:432] Convolution2 -> Convolution2
I0518 20:03:05.503391  3179 net.cpp:155] Setting up Convolution2
I0518 20:03:05.503446  3179 net.cpp:163] Top shape: 1 256 59 79 (1193216)
I0518 20:03:05.503478  3179 layer_factory.hpp:76] Creating layer conv1
I0518 20:03:05.503497  3179 net.cpp:110] Creating Layer conv1
I0518 20:03:05.503507  3179 net.cpp:476] conv1 <- Convolution2
I0518 20:03:05.503525  3179 net.cpp:419] conv1 -> Convolution2 (in-place)
I0518 20:03:05.503543  3179 net.cpp:155] Setting up conv1
I0518 20:03:05.503553  3179 net.cpp:163] Top shape: 1 256 59 79 (1193216)
I0518 20:03:05.503561  3179 layer_factory.hpp:76] Creating layer norm1
I0518 20:03:05.503573  3179 net.cpp:110] Creating Layer norm1
I0518 20:03:05.503582  3179 net.cpp:476] norm1 <- Convolution2
I0518 20:03:05.503593  3179 net.cpp:432] norm1 -> norm1
I0518 20:03:05.503609  3179 net.cpp:155] Setting up norm1
I0518 20:03:05.503618  3179 net.cpp:163] Top shape: 1 256 59 79 (1193216)
I0518 20:03:05.503626  3179 layer_factory.hpp:76] Creating layer pool1
I0518 20:03:05.503638  3179 net.cpp:110] Creating Layer pool1
I0518 20:03:05.503644  3179 net.cpp:476] pool1 <- norm1
I0518 20:03:05.503655  3179 net.cpp:432] pool1 -> pool1
I0518 20:03:05.503675  3179 net.cpp:155] Setting up pool1
I0518 20:03:05.503685  3179 net.cpp:163] Top shape: 1 256 29 39 (289536)
I0518 20:03:05.503693  3179 layer_factory.hpp:76] Creating layer Convolution3
I0518 20:03:05.503708  3179 net.cpp:110] Creating Layer Convolution3
I0518 20:03:05.503716  3179 net.cpp:476] Convolution3 <- pool1
I0518 20:03:05.503727  3179 net.cpp:432] Convolution3 -> Convolution3
I0518 20:03:05.528825  3179 net.cpp:155] Setting up Convolution3
I0518 20:03:05.528868  3179 net.cpp:163] Top shape: 1 384 29 39 (434304)
I0518 20:03:05.528892  3179 layer_factory.hpp:76] Creating layer conv2
I0518 20:03:05.528908  3179 net.cpp:110] Creating Layer conv2
I0518 20:03:05.528918  3179 net.cpp:476] conv2 <- Convolution3
I0518 20:03:05.528930  3179 net.cpp:419] conv2 -> Convolution3 (in-place)
I0518 20:03:05.528944  3179 net.cpp:155] Setting up conv2
I0518 20:03:05.528954  3179 net.cpp:163] Top shape: 1 384 29 39 (434304)
I0518 20:03:05.528961  3179 layer_factory.hpp:76] Creating layer Convolution4
I0518 20:03:05.528977  3179 net.cpp:110] Creating Layer Convolution4
I0518 20:03:05.528985  3179 net.cpp:476] Convolution4 <- Convolution3
I0518 20:03:05.528996  3179 net.cpp:432] Convolution4 -> Convolution4
I0518 20:03:05.574342  3179 net.cpp:155] Setting up Convolution4
I0518 20:03:05.574391  3179 net.cpp:163] Top shape: 1 384 29 39 (434304)
I0518 20:03:05.574411  3179 layer_factory.hpp:76] Creating layer conv3
I0518 20:03:05.574430  3179 net.cpp:110] Creating Layer conv3
I0518 20:03:05.574441  3179 net.cpp:476] conv3 <- Convolution4
I0518 20:03:05.574455  3179 net.cpp:419] conv3 -> Convolution4 (in-place)
I0518 20:03:05.574471  3179 net.cpp:155] Setting up conv3
I0518 20:03:05.574520  3179 net.cpp:163] Top shape: 1 384 29 39 (434304)
I0518 20:03:05.574529  3179 layer_factory.hpp:76] Creating layer Convolution5
I0518 20:03:05.574544  3179 net.cpp:110] Creating Layer Convolution5
I0518 20:03:05.574551  3179 net.cpp:476] Convolution5 <- Convolution4
I0518 20:03:05.574568  3179 net.cpp:432] Convolution5 -> Convolution5
I0518 20:03:05.613627  3179 net.cpp:155] Setting up Convolution5
I0518 20:03:05.613692  3179 net.cpp:163] Top shape: 1 384 29 39 (434304)
I0518 20:03:05.613723  3179 layer_factory.hpp:76] Creating layer conv4
I0518 20:03:05.613740  3179 net.cpp:110] Creating Layer conv4
I0518 20:03:05.613750  3179 net.cpp:476] conv4 <- Convolution5
I0518 20:03:05.613765  3179 net.cpp:419] conv4 -> Convolution5 (in-place)
I0518 20:03:05.613781  3179 net.cpp:155] Setting up conv4
I0518 20:03:05.613791  3179 net.cpp:163] Top shape: 1 384 29 39 (434304)
I0518 20:03:05.613800  3179 layer_factory.hpp:76] Creating layer pool4
I0518 20:03:05.613814  3179 net.cpp:110] Creating Layer pool4
I0518 20:03:05.613821  3179 net.cpp:476] pool4 <- Convolution5
I0518 20:03:05.613832  3179 net.cpp:432] pool4 -> pool4
I0518 20:03:05.613852  3179 net.cpp:155] Setting up pool4
I0518 20:03:05.613862  3179 net.cpp:163] Top shape: 1 384 14 19 (102144)
I0518 20:03:05.613869  3179 layer_factory.hpp:76] Creating layer Convolution6
I0518 20:03:05.613886  3179 net.cpp:110] Creating Layer Convolution6
I0518 20:03:05.613894  3179 net.cpp:476] Convolution6 <- pool4
I0518 20:03:05.613906  3179 net.cpp:432] Convolution6 -> Convolution6
I0518 20:03:05.913995  3193 blocking_queue.cpp:50] Waiting for data
I0518 20:03:06.591483  3179 net.cpp:155] Setting up Convolution6
I0518 20:03:06.591547  3179 net.cpp:163] Top shape: 1 4096 15 20 (1228800)
I0518 20:03:06.591570  3179 layer_factory.hpp:76] Creating layer fc5
I0518 20:03:06.591590  3179 net.cpp:110] Creating Layer fc5
I0518 20:03:06.591600  3179 net.cpp:476] fc5 <- Convolution6
I0518 20:03:06.591612  3179 net.cpp:419] fc5 -> Convolution6 (in-place)
I0518 20:03:06.591624  3179 net.cpp:155] Setting up fc5
I0518 20:03:06.591631  3179 net.cpp:163] Top shape: 1 4096 15 20 (1228800)
I0518 20:03:06.591635  3179 layer_factory.hpp:76] Creating layer drop5
I0518 20:03:06.591644  3179 net.cpp:110] Creating Layer drop5
I0518 20:03:06.591648  3179 net.cpp:476] drop5 <- Convolution6
I0518 20:03:06.591655  3179 net.cpp:419] drop5 -> Convolution6 (in-place)
I0518 20:03:06.591663  3179 net.cpp:155] Setting up drop5
I0518 20:03:06.591670  3179 net.cpp:163] Top shape: 1 4096 15 20 (1228800)
I0518 20:03:06.591675  3179 layer_factory.hpp:76] Creating layer Convolution6_drop5_0_split
I0518 20:03:06.591682  3179 net.cpp:110] Creating Layer Convolution6_drop5_0_split
I0518 20:03:06.591687  3179 net.cpp:476] Convolution6_drop5_0_split <- Convolution6
I0518 20:03:06.591694  3179 net.cpp:432] Convolution6_drop5_0_split -> Convolution6_drop5_0_split_0
I0518 20:03:06.591703  3179 net.cpp:432] Convolution6_drop5_0_split -> Convolution6_drop5_0_split_1
I0518 20:03:06.591712  3179 net.cpp:432] Convolution6_drop5_0_split -> Convolution6_drop5_0_split_2
I0518 20:03:06.591722  3179 net.cpp:155] Setting up Convolution6_drop5_0_split
I0518 20:03:06.591727  3179 net.cpp:163] Top shape: 1 4096 15 20 (1228800)
I0518 20:03:06.591732  3179 net.cpp:163] Top shape: 1 4096 15 20 (1228800)
I0518 20:03:06.591738  3179 net.cpp:163] Top shape: 1 4096 15 20 (1228800)
I0518 20:03:06.591742  3179 layer_factory.hpp:76] Creating layer Convolution7
I0518 20:03:06.591758  3179 net.cpp:110] Creating Layer Convolution7
I0518 20:03:06.591763  3179 net.cpp:476] Convolution7 <- Convolution6_drop5_0_split_0
I0518 20:03:06.591770  3179 net.cpp:432] Convolution7 -> Convolution7
I0518 20:03:06.853598  3179 net.cpp:155] Setting up Convolution7
I0518 20:03:06.853637  3179 net.cpp:163] Top shape: 1 4096 15 20 (1228800)
I0518 20:03:06.853653  3179 layer_factory.hpp:76] Creating layer fc6
I0518 20:03:06.853665  3179 net.cpp:110] Creating Layer fc6
I0518 20:03:06.853672  3179 net.cpp:476] fc6 <- Convolution7
I0518 20:03:06.853724  3179 net.cpp:419] fc6 -> Convolution7 (in-place)
I0518 20:03:06.853736  3179 net.cpp:155] Setting up fc6
I0518 20:03:06.853744  3179 net.cpp:163] Top shape: 1 4096 15 20 (1228800)
I0518 20:03:06.853749  3179 layer_factory.hpp:76] Creating layer drop6
I0518 20:03:06.853756  3179 net.cpp:110] Creating Layer drop6
I0518 20:03:06.853761  3179 net.cpp:476] drop6 <- Convolution7
I0518 20:03:06.853767  3179 net.cpp:419] drop6 -> Convolution7 (in-place)
I0518 20:03:06.853776  3179 net.cpp:155] Setting up drop6
I0518 20:03:06.853782  3179 net.cpp:163] Top shape: 1 4096 15 20 (1228800)
I0518 20:03:06.853787  3179 layer_factory.hpp:76] Creating layer Convolution8
I0518 20:03:06.853799  3179 net.cpp:110] Creating Layer Convolution8
I0518 20:03:06.853804  3179 net.cpp:476] Convolution8 <- Convolution6_drop5_0_split_1
I0518 20:03:06.853812  3179 net.cpp:432] Convolution8 -> Convolution8
I0518 20:03:07.107453  3179 net.cpp:155] Setting up Convolution8
I0518 20:03:07.107494  3179 net.cpp:163] Top shape: 1 4096 15 20 (1228800)
I0518 20:03:07.107509  3179 layer_factory.hpp:76] Creating layer ReLU1
I0518 20:03:07.107522  3179 net.cpp:110] Creating Layer ReLU1
I0518 20:03:07.107532  3179 net.cpp:476] ReLU1 <- Convolution8
I0518 20:03:07.107544  3179 net.cpp:419] ReLU1 -> Convolution8 (in-place)
I0518 20:03:07.107560  3179 net.cpp:155] Setting up ReLU1
I0518 20:03:07.107570  3179 net.cpp:163] Top shape: 1 4096 15 20 (1228800)
I0518 20:03:07.107579  3179 layer_factory.hpp:76] Creating layer Dropout1
I0518 20:03:07.107592  3179 net.cpp:110] Creating Layer Dropout1
I0518 20:03:07.107599  3179 net.cpp:476] Dropout1 <- Convolution8
I0518 20:03:07.107605  3179 net.cpp:419] Dropout1 -> Convolution8 (in-place)
I0518 20:03:07.107615  3179 net.cpp:155] Setting up Dropout1
I0518 20:03:07.107621  3179 net.cpp:163] Top shape: 1 4096 15 20 (1228800)
I0518 20:03:07.107626  3179 layer_factory.hpp:76] Creating layer Convolution9
I0518 20:03:07.107638  3179 net.cpp:110] Creating Layer Convolution9
I0518 20:03:07.107643  3179 net.cpp:476] Convolution9 <- Convolution8
I0518 20:03:07.107650  3179 net.cpp:432] Convolution9 -> Convolution9
I0518 20:03:07.119895  3179 net.cpp:155] Setting up Convolution9
I0518 20:03:07.119935  3179 net.cpp:163] Top shape: 1 128 15 20 (38400)
I0518 20:03:07.119968  3179 layer_factory.hpp:76] Creating layer output_pixel
I0518 20:03:07.119987  3179 net.cpp:110] Creating Layer output_pixel
I0518 20:03:07.119997  3179 net.cpp:476] output_pixel <- Convolution9
I0518 20:03:07.120012  3179 net.cpp:432] output_pixel -> output_pixel
I0518 20:03:07.120033  3179 net.cpp:155] Setting up output_pixel
I0518 20:03:07.120044  3179 net.cpp:163] Top shape: 1 2 120 160 (38400)
I0518 20:03:07.120050  3179 layer_factory.hpp:76] Creating layer output_pixel_output_pixel_0_split
I0518 20:03:07.120057  3179 net.cpp:110] Creating Layer output_pixel_output_pixel_0_split
I0518 20:03:07.120062  3179 net.cpp:476] output_pixel_output_pixel_0_split <- output_pixel
I0518 20:03:07.120071  3179 net.cpp:432] output_pixel_output_pixel_0_split -> output_pixel_output_pixel_0_split_0
I0518 20:03:07.120081  3179 net.cpp:432] output_pixel_output_pixel_0_split -> output_pixel_output_pixel_0_split_1
I0518 20:03:07.120090  3179 net.cpp:432] output_pixel_output_pixel_0_split -> output_pixel_output_pixel_0_split_2
I0518 20:03:07.120100  3179 net.cpp:155] Setting up output_pixel_output_pixel_0_split
I0518 20:03:07.120105  3179 net.cpp:163] Top shape: 1 2 120 160 (38400)
I0518 20:03:07.120111  3179 net.cpp:163] Top shape: 1 2 120 160 (38400)
I0518 20:03:07.120117  3179 net.cpp:163] Top shape: 1 2 120 160 (38400)
I0518 20:03:07.120121  3179 layer_factory.hpp:76] Creating layer loss_pixel
I0518 20:03:07.120128  3179 net.cpp:110] Creating Layer loss_pixel
I0518 20:03:07.120133  3179 net.cpp:476] loss_pixel <- output_pixel_output_pixel_0_split_0
I0518 20:03:07.120141  3179 net.cpp:476] loss_pixel <- label_pixel_label_pixel_0_split_4
I0518 20:03:07.120147  3179 net.cpp:432] loss_pixel -> loss_pixel
…
I0518 20:03:07.120396  3179 net.cpp:432] acc_pixel_top1 -> acc_pixel_top1
I0518 20:03:07.120404  3179 net.cpp:155] Setting up acc_pixel_top1
I0518 20:03:07.120409  3179 net.cpp:163] Top shape: (1)
I0518 20:03:07.120414  3179 layer_factory.hpp:76] Creating layer Convolution10
I0518 20:03:07.120424  3179 net.cpp:110] Creating Layer Convolution10
I0518 20:03:07.120427  3179 net.cpp:476] Convolution10 <- Convolution6_drop5_0_split_2
I0518 20:03:07.120435  3179 net.cpp:432] Convolution10 -> Convolution10
I0518 20:03:07.381013  3179 net.cpp:155] Setting up Convolution10
I0518 20:03:07.381067  3179 net.cpp:163] Top shape: 1 4096 15 20 (1228800)
I0518 20:03:07.381103  3179 layer_factory.hpp:76] Creating layer ReLU2
I0518 20:03:07.381121  3179 net.cpp:110] Creating Layer ReLU2
I0518 20:03:07.381131  3179 net.cpp:476] ReLU2 <- Convolution10
I0518 20:03:07.381145  3179 net.cpp:419] ReLU2 -> Convolution10 (in-place)
I0518 20:03:07.381161  3179 net.cpp:155] Setting up ReLU2
I0518 20:03:07.381172  3179 net.cpp:163] Top shape: 1 4096 15 20 (1228800)
I0518 20:03:07.381181  3179 layer_factory.hpp:76] Creating layer Dropout2
I0518 20:03:07.381199  3179 net.cpp:110] Creating Layer Dropout2
I0518 20:03:07.381208  3179 net.cpp:476] Dropout2 <- Convolution10
I0518 20:03:07.381220  3179 net.cpp:419] Dropout2 -> Convolution10 (in-place)
I0518 20:03:07.381237  3179 net.cpp:155] Setting up Dropout2
I0518 20:03:07.381244  3179 net.cpp:163] Top shape: 1 4096 15 20 (1228800)
I0518 20:03:07.381249  3179 layer_factory.hpp:76] Creating layer Convolution11
I0518 20:03:07.381258  3179 net.cpp:110] Creating Layer Convolution11
I0518 20:03:07.381263  3179 net.cpp:476] Convolution11 <- Convolution10
I0518 20:03:07.381269  3179 net.cpp:432] Convolution11 -> Convolution11
I0518 20:03:07.444113  3179 net.cpp:155] Setting up Convolution11
I0518 20:03:07.444150  3179 net.cpp:163] Top shape: 1 1004 15 20 (301200)
I0518 20:03:07.444170  3179 layer_factory.hpp:76] Creating layer output_type
I0518 20:03:07.444188  3179 net.cpp:110] Creating Layer output_type
I0518 20:03:07.444198  3179 net.cpp:476] output_type <- Convolution11
I0518 20:03:07.444212  3179 net.cpp:432] output_type -> output_type
I0518 20:03:07.444233  3179 net.cpp:155] Setting up output_type
I0518 20:03:07.444247  3179 net.cpp:163] Top shape: 1 251 30 40 (301200)
I0518 20:03:07.444254  3179 layer_factory.hpp:76] Creating layer output_type_output_type_0_split
I0518 20:03:07.444267  3179 net.cpp:110] Creating Layer output_type_output_type_0_split
I0518 20:03:07.444272  3179 net.cpp:476] output_type_output_type_0_split <- output_type
I0518 20:03:07.444280  3179 net.cpp:432] output_type_output_type_0_split -> output_type_output_type_0_split_0
I0518 20:03:07.444289  3179 net.cpp:432] output_type_output_type_0_split -> output_type_output_type_0_split_1
I0518 20:03:07.444298  3179 net.cpp:432] output_type_output_type_0_split -> output_type_output_type_0_split_2
I0518 20:03:07.444306  3179 net.cpp:432] output_type_output_type_0_split -> output_type_output_type_0_split_3
I0518 20:03:07.444339  3179 net.cpp:155] Setting up output_type_output_type_0_split
I0518 20:03:07.444345  3179 net.cpp:163] Top shape: 1 251 30 40 (301200)
I0518 20:03:07.444351  3179 net.cpp:163] Top shape: 1 251 30 40 (301200)
I0518 20:03:07.444357  3179 net.cpp:163] Top shape: 1 251 30 40 (301200)
I0518 20:03:07.444362  3179 net.cpp:163] Top shape: 1 251 30 40 (301200)
I0518 20:03:07.444367  3179 layer_factory.hpp:76] Creating layer loss_type
I0518 20:03:07.444376  3179 net.cpp:110] Creating Layer loss_type
I0518 20:03:07.444381  3179 net.cpp:476] loss_type <- output_type_output_type_0_split_0
I0518 20:03:07.444387  3179 net.cpp:476] loss_type <- label_type_data_2_split_0
I0518 20:03:07.444396  3179 net.cpp:432] loss_type -> loss_type
I0518 20:03:07.444411  3179 layer_factory.hpp:76] Creating layer loss_type
…
I0518 20:03:07.448598  3179 net.cpp:476] acc_type_top5 <- label_type_data_2_split_3
I0518 20:03:07.448607  3179 net.cpp:432] acc_type_top5 -> acc_type_top5
I0518 20:03:07.448614  3179 net.cpp:155] Setting up acc_type_top5
I0518 20:03:07.448621  3179 net.cpp:163] Top shape: (1)
I0518 20:03:07.448626  3179 layer_factory.hpp:76] Creating layer Convolution12
I0518 20:03:07.448637  3179 net.cpp:110] Creating Layer Convolution12
I0518 20:03:07.448642  3179 net.cpp:476] Convolution12 <- Convolution7
I0518 20:03:07.448652  3179 net.cpp:432] Convolution12 -> Convolution12
I0518 20:03:07.466383  3179 net.cpp:155] Setting up Convolution12
I0518 20:03:07.466423  3179 net.cpp:163] Top shape: 1 256 15 20 (76800)
I0518 20:03:07.466447  3179 layer_factory.hpp:76] Creating layer output_bb
I0518 20:03:07.466470  3179 net.cpp:110] Creating Layer output_bb
I0518 20:03:07.466482  3179 net.cpp:476] output_bb <- Convolution12
I0518 20:03:07.466500  3179 net.cpp:432] output_bb -> output_bb
I0518 20:03:07.466522  3179 net.cpp:155] Setting up output_bb
I0518 20:03:07.466536  3179 net.cpp:163] Top shape: 1 4 120 160 (76800)
I0518 20:03:07.466545  3179 layer_factory.hpp:76] Creating layer Eltwise1
I0518 20:03:07.466559  3179 net.cpp:110] Creating Layer Eltwise1
I0518 20:03:07.466567  3179 net.cpp:476] Eltwise1 <- output_bb
I0518 20:03:07.466579  3179 net.cpp:476] Eltwise1 <- label_pixel4
I0518 20:03:07.466594  3179 net.cpp:432] Eltwise1 -> Eltwise1
I0518 20:03:07.466611  3179 net.cpp:155] Setting up Eltwise1
I0518 20:03:07.466624  3179 net.cpp:163] Top shape: 1 4 120 160 (76800)
I0518 20:03:07.466634  3179 layer_factory.hpp:76] Creating layer Eltwise2
I0518 20:03:07.466691  3179 net.cpp:110] Creating Layer Eltwise2
I0518 20:03:07.466703  3179 net.cpp:476] Eltwise2 <- Eltwise1
I0518 20:03:07.466717  3179 net.cpp:476] Eltwise2 <- label_size4_label_size4_0_split_1
I0518 20:03:07.466760  3179 net.cpp:432] Eltwise2 -> Eltwise2
I0518 20:03:07.466779  3179 net.cpp:155] Setting up Eltwise2
I0518 20:03:07.466792  3179 net.cpp:163] Top shape: 1 4 120 160 (76800)
I0518 20:03:07.466801  3179 layer_factory.hpp:76] Creating layer output_bb_norm
I0518 20:03:07.466814  3179 net.cpp:110] Creating Layer output_bb_norm
I0518 20:03:07.466822  3179 net.cpp:476] output_bb_norm <- Eltwise2
I0518 20:03:07.466833  3179 net.cpp:476] output_bb_norm <- label_norm4_label_norm4_0_split_1
I0518 20:03:07.466846  3179 net.cpp:432] output_bb_norm -> output_bb_norm
I0518 20:03:07.466861  3179 net.cpp:155] Setting up output_bb_norm
I0518 20:03:07.466873  3179 net.cpp:163] Top shape: 1 4 120 160 (76800)
I0518 20:03:07.466882  3179 layer_factory.hpp:76] Creating layer loss_bb
I0518 20:03:07.466895  3179 net.cpp:110] Creating Layer loss_bb
I0518 20:03:07.466904  3179 net.cpp:476] loss_bb <- output_bb_norm
I0518 20:03:07.466915  3179 net.cpp:476] loss_bb <- label_bb_sn_nn
I0518 20:03:07.466931  3179 net.cpp:432] loss_bb -> loss_bb
I0518 20:03:07.466982  3179 net.cpp:155] Setting up loss_bb
…
